cnn_phase2_v2_best.pt (torch, 270181 bytes, 15 tensors)

cnn.0.weight f4 [16, 2, 3, 3]
000000 97 91 9b bd e3 7d 28 bd ec 75 11 3a ce 6a b1 3d
       -0.075961284 -0.04113568 0.0005548883 0.086629495
000010 ce 98 71 bb e1 c4 20 be b8 2f bc 3d b4 51 2a 3e
       -0.003686476 -0.15700103 0.09188789 0.1663273
000020 b0 49 69 be 59 04 78 3d 16 29 11 3e 7b f2 5a 3e
       -0.22782016 0.06055102 0.1417583 0.21381561
000030 26 9f 3f be 61 8e 08 be 65 03 bf 3d 99 13 dd 3d
       -0.18713054 -0.13335563 0.09326819 0.107947536
000040 29 06 d8 bc 3f 46 56 3e 8c ec f5 3b 57 3f 7d 3d
       -0.026370125 0.20925234 0.007505005 0.061827984
000050 5a 29 1c 3e cc eb 25 bd a3 ae 07 3c e0 cb 31 be
       0.1525015 -0.040508077 0.008281383 -0.17362928
000060 cc cc 7c 3d 3a ec f4 bc d4 0d 35 3e 4c ce 7e 3b
       0.061718747 -0.029897798 0.17681056 0.0038880287
000070 e7 68 85 3e 1d ac 1a bd 91 92 31 3e 2e c0 8d 3e
       0.26056597 -0.037761796 0.17341067 0.27685684
000080 b6 d8 8c 3e 5c 78 8a be 89 c0 f9 3d fd fd 26 bd
       0.27509087 -0.27044952 0.12194926 -0.040769566
000090 68 e1 da be 3b 90 9d be 40 01 56 3e ac 9c 4b 3e
       -0.42750096 -0.30774102 0.20898914 0.19883984
0000a0 04 f5 81 be cd c9 30 3e f1 06 03 bf 5e 53 9f bd
       -0.25382245 0.17264481 -0.51182467 -0.07779573
0000b0 c2 ee 58 3d d7 57 27 3e 4c aa 03 be d9 7d 0e 3e
       0.052962072 0.16342102 -0.12857932 0.13915195
0000c0 f4 34 2c bd b2 46 93 3d d6 b0 e1 3d c7 3e 43 be
       -0.042042688 0.071912184 0.11020057 -0.19066916
0000d0 86 e6 71 3e 45 90 87 be 02 0d 67 3d 97 b0 77 3e
       0.23623094 -0.26477256 0.05640889 0.24188457
0000e0 98 a3 6a 3d 87 d2 33 3e 55 56 8b bd 40 11 9a be
       0.05728492 0.17560779 -0.06803576 -0.30091286
0000f0 5e 57 66 3d f3 5c 6c be a1 b1 bf bc bf 1c ac bc
       0.056235664 -0.23082332 -0.02340013 -0.021009801
000100 3c db 3e be 66 85 02 3e 44 57 1c 3d fd 63 25 3e
       -0.18638319 0.127462 0.03816916 0.16151424
000110 fc 8c 23 3d 43 7a 30 3d 74 ea 9b 3d 94 f5 11 be
       0.039929375 0.043085348 0.07613078 -0.14253837
000120 6b f8 12 bb 90 04 86 3e 72 c9 9c bc 2b a7 fc bc
       -0.00224259 0.26175356 -0.019139025 -0.03084143
000130 f3 e8 ca bc c2 19 b0 be 70 3a be bc 77 73 a7 be
       -0.024769282 -0.34394652 -0.023221225 -0.3270528
000140 e2 09 75 3d 29 b1 6a bc 8c 32 59 3e ab e6 6a be
       0.059823878 -0.014324465 0.21210688 -0.22939555
000150 c2 3c 02 3e 47 95 5d be 47 bd e0 bb 45 e7 8f bc
       0.1271849 -0.21638976 -0.006858501 -0.017566333
000160 33 ae 38 3e 23 b0 64 3e 92 f9 1a 3e 47 36 5d 3d
       0.18035202 0.22332816 0.15134266 0.05400684
000170 29 95 58 3d fe 60 4e 3e 6f 93 c7 3d ad 68 93 bd
       0.052876625 0.20154187 0.097449176 -0.071977
000180 5f 4c cf bd 41 fc 00 3e a9 6a 30 3e 71 1e ee 3d
       -0.101219885 0.12596227 0.17228188 0.116269
000190 b3 75 9c 3d dd 8c 80 be 5d 82 8b bd 99 ad 3f 3e
       0.07639637 -0.2510747 -0.06811974 0.18718566
0001a0 81 d3 0b bd 5e 9d 8e 3d 21 78 89 3e d1 d1 37 3e
       -0.034137253 0.06963609 0.26849464 0.17951132
0001b0 d1 8a ad bd 37 ce 81 be 01 4c 51 3e 3f cc ad 3d
       -0.08473743 -0.25352642 0.2043915 0.084862225
0001c0 1b fd 78 be 15 23 1d 3e bd f2 8f be f7 6a 0a be
       -0.24315302 0.15345414 -0.28114882 -0.13517366
0001d0 5b 6e 54 bd cd 80 02 3e 7c 63 ab bc 96 c2 c0 bc
       -0.051863056 0.12744446 -0.020921461 -0.023530286
0001e0 e5 8d ab be 52 1c 15 be ec 2a da bd 06 1c 9c bd
       -0.33506694 -0.14561585 -0.10652718 -0.076225325
0001f0 4e 5c 0f bd 10 4b 0c 3e 3f 7e 8d be bf 4e 95 be
       -0.035000138 0.13700509 -0.2763538 -0.2916164
000200 c0 d4 57 be 22 6c 6d 3e 73 89 54 be a5 35 82 3e
       -0.21077251 0.2318578 -0.20755558 0.25431553
000210 af e0 b4 3e 57 e7 1f 3e 46 19 35 bf 63 2a 52 3d
       0.3532767 0.15615593 -0.7074169 0.051309954
000220 0e e7 35 bd ba 91 10 bd 0c 44 8a be cc 13 42 3c
       -0.044409804 -0.035295226 -0.2700504 0.01184554
000230 0b 1e c8 be 5e 36 c1 bd f0 ca a1 3c 58 c5 2b be
       -0.3908542 -0.09434198 0.019750088 -0.167745
000240 05 ef 56 be 11 14 1d 3e 14 19 60 bd 1b 85 0e 3e
       -0.20989616 0.15339686 -0.054711416 0.13917963
000250 e9 77 25 bd 56 e2 1b 3e e9 48 45 be c6 25 ef 3d
       -0.04039756 0.15223059 -0.19266094 0.116771266
000260 f4 78 23 bb d5 22 cb bc 77 19 4b bd 98 b6 b9 bc
       -0.002494392 -0.024796883 -0.049584832 -0.022670075
000270 0e 19 16 3e 6a 7b 89 3e 3c cc 36 3e 0b e8 20 be
       0.14657995 0.2685197 0.17851347 -0.15713517
000280 b8 4f 39 be c2 fe c5 bd af 1f d7 3d bd c1 87 3d
       -0.18096817 -0.09667732 0.1050409 0.066287495
000290 da 17 43 3e b6 1e 4c 3d 65 6e 7b 3d ee a5 47 3e
       0.19052067 0.049833976 0.061384577 0.19496891
0002a0 4f d2 84 3d f6 be 12 be b4 36 8f be 07 3e cb bd
       0.06485426 -0.14330658 -0.27971423 -0.0992394
0002b0 2e ff de bd 3e 22 94 3d 12 c7 44 be c1 d7 c2 3d
       -0.108885154 0.07233094 -0.19216564 0.09513808
0002c0 bd d1 71 3e cb dd 06 be 6f a6 8c 3e b4 a1 27 be
       0.23615165 -0.13170545 0.2747073 -0.16370279
0002d0 20 eb 1c bd 98 aa 3b 3e 4f 1e 47 3e e4 df 2f 3e
       -0.03831017 0.18326795 0.19445156 0.17175251
0002e0 c5 cf 47 3e 7f 13 a6 bc a6 d3 d0 bd ae 1f de bd
       0.19512852 -0.020272968 -0.10196619 -0.10845886
0002f0 b2 6e bc 3d ef 45 8e be 8d b8 c8 bd 60 18 34 be
       0.09200801 -0.2778773 -0.09800825 -0.17587423
000300 c5 26 a2 bd 84 4c f6 3d e0 7e 11 3e 85 50 f5 bc
       -0.07917551 0.12026313 0.14208555 -0.029945621
000310 02 2f f3 3d b7 87 46 be 43 30 4b 3d 92 25 9e bd
       0.118742004 -0.19387709 0.049606573 -0.0772201
000320 93 76 a7 be 46 49 10 bd 70 69 2c 3e da 20 a7 be
       -0.32707652 -0.03522613 0.16837096 -0.3264225
000330 dc 8d eb be 91 87 32 be d7 b2 ad 3e 39 24 6f 3e
       -0.46006668 -0.17434527 0.33925506 0.23353662
000340 1a 08 53 bd 40 f4 76 bd 5e 48 6d 3d 3a 56 38 3e
       -0.051521398 -0.06029153 0.057930343 0.18001643
000350 53 f8 90 bd a2 93 5f bd 2f 3a e3 3d 34 f5 1a 3d
       -0.07078614 -0.054584153 0.11095082 0.0378315
000360 e0 cf c1 3e 75 65 ce 3d c3 ba 82 3d ce 8e 0f 3e
       0.3785391 0.10077945 0.06383278 0.1401932
000370 a2 68 70 3e e5 e7 96 3d 84 4a fc bd 5c ab a1 bd
       0.23477414 0.07368449 -0.123189 -0.07894012
000380 d4 dc 8f 3e 64 e6 10 3e 92 76 4e 3e 19 04 4a 3e
       0.28098166 0.14150387 0.20162418 0.19728126
000390 96 38 9b bc 1d 6f e7 3d d3 7a c4 bd b2 ff c3 be
       -0.01894788 0.1130049 -0.09593739 -0.38281018
0003a0 f4 4f 25 bd fa af 81 bd 9c 05 02 be b3 c1 ef 3d
       -0.040359452 -0.06332393 -0.12697452 0.11706867
0003b0 6d f0 6c 3d c0 b4 98 bd 41 e7 87 3d d6 0b 38 3e
       0.057846475 -0.0745635 0.06635905 0.17973265
0003c0 1e 01 55 be 22 f5 63 3e 50 c0 3a 3d 26 5a 2f 3e
       -0.20801207 0.2226148 0.04559356 0.17124233
0003d0 a4 a1 4a 3e 19 0c 88 3d 96 57 c6 3d b2 7f 7f 3e
       0.19788224 0.066429324 0.096846744 0.24951056
0003e0 7a 50 e3 bb 6a 99 23 3e c4 cc ae bc 26 23 a6 bd
       -0.006937084 0.15976492 -0.021337874 -0.08112173
0003f0 bb d7 5d 3e ab 72 ec 3d 2d 60 12 3e 97 76 e9 3d
       0.21664326 0.11545309 0.142945 0.11399572

cnn.0.bias f4 [16]
000000 43 3d 20 bc 41 84 59 be 83 6b ca 3d f3 cb 68 bd
       -0.009780231 -0.21241857 0.098837875 -0.056835126
000010 0a 4f 1c 3d 9d 11 f5 bd 3e 44 3c 3e 45 4e 96 bd
       0.038161315 -0.1196625 0.18385407 -0.073391475
000020 50 ef 99 bd 1e bb 46 be 1a a8 09 be 8c 5d 85 3d
       -0.07516348 -0.19407317 -0.13443032 0.06511983
000030 6d 86 8f be 85 61 a9 bd 28 ff 01 be 09 c2 80 bb
       -0.28032246 -0.082705535 -0.1269499 -0.003929381

cnn.3.weight f4 [32, 16, 3, 3]
000000 02 4a e6 3d 29 ce 89 bc 26 82 df 3b 21 a5 45 bd
       0.112445846 -0.016821938 0.006820935 -0.048253182
000010 aa f4 e9 bc 6e e4 6b bd 2a 60 a2 3d ba 5e b6 3d
       -0.028559048 -0.057590894 0.07928498 0.089047864
000020 49 ba c7 bc 85 b0 e0 3d b9 c8 87 3d ec f3 b8 3d
       -0.02438082 0.109711684 0.06630082 0.090308994
000030 93 22 40 bd 91 51 ca 3d 5c 94 d3 3d 95 d6 bf 3c
       -0.046907973 0.09878839 0.10331032 0.02341775
000040 d9 67 46 3e d5 32 d1 3e 91 4f ca be a1 5e 57 be
       0.19375552 0.40859094 -0.3951383 -0.21032192
000050 09 7c d7 ba 87 de 33 bd 6e 2a 40 bd 4f 4e 4e bd
       -0.0016440164 -0.04391339 -0.046915464 -0.05036765
000060 c4 75 56 bb c2 36 a1 bd c5 19 53 bd 73 a7 66 3d
       -0.0032724002 -0.07871772 -0.051538248 0.056312036
000070 3c 62 55 3e d9 48 26 be 3e 44 52 3e 85 cd c3 3d
       0.20838255 -0.16238727 0.20533845 0.09560684
000080 39 f8 63 be eb 8a b4 bd 6a 6a 81 be 8a 96 5b 3d
       -0.22262658 -0.08815559 -0.252765 0.053610362
000090 54 ff 1e 3d 1d 04 81 3d cd 96 85 bb d4 aa 30 3d
       0.03881772 0.06299613 -0.0040768147 0.043131664
0000a0 cf a2 d5 3d 52 94 cd bb af e4 e1 bb 67 46 0a be
       0.10431444 -0.0062737847 -0.0068937163 -0.13503419
0000b0 81 46 b7 bd 4d 41 1e 3e 51 68 2a 3e ed 22 59 bd
       -0.089489944 0.15454598 0.16641356 -0.053011823
0000c0 1d c1 29 3d a5 aa 81 bd de ba c9 bd 81 b4 c5 bd
       0.041443933 -0.06331376 -0.09850095 -0.09653569
0000d0 fd fb 75 be 76 ee dd bd 9c c5 4f be d8 cf 17 bd
       -0.24021907 -0.108364984 -0.20290226 -0.03706345
0000e0 2b aa 07 3c 51 84 8a bd 09 6c db bd 96 ba ff bb
       0.008280317 -0.067635186 -0.107139654 -0.007804225
0000f0 ac 39 e3 3c ba 29 60 bd 48 72 b6 bd e4 96 9b 3c
       0.027737461 -0.054727294 -0.08908516 0.018992849
000100 b5 3a 47 3c a1 1f 98 bc 1e d5 8c be 3c 96 e8 bd
       0.012159993 -0.01856977 -0.27506346 -0.1135678
000110 16 84 ef 3b 5a 6b 00 3e a1 0b e7 bc e7 14 78 be
       0.007309447 0.12540951 -0.028203787 -0.24226724
000120 fb ae 9f 3c e9 31 58 3d ac 37 45 bc 4a f9 de 3c
       0.019492617 0.052781973 -0.012037199 0.02721848
000130 82 a1 aa bc 94 bf d8 bd 6c c7 1a bd 48 ec d4 3b
       -0.020828966 -0.10583416 -0.03778784 0.0064978935
000140 0e 43 a5 bd 95 b3 83 3d b0 b1 2e bd 0a 94 1b be
       -0.0806943 0.06430737 -0.042649925 -0.15193191
000150 1a 76 0f 3c 2e 88 33 be e0 42 50 be 17 c5 e8 bd
       0.008756185 -0.17532417 -0.20338011 -0.11365717
000160 2b 72 94 be 64 a8 1d bf d7 ae 1c 3e b9 b8 8c 3d
       -0.28993353 -0.6158507 0.15301071 0.068711706
000170 49 68 15 be ca 9a 88 3d bf 10 f0 bd 5f bf 1c be
       -0.14590563 0.06670149 -0.11721944 -0.15307377
000180 ae 90 50 be d1 aa 87 be 91 77 59 be 7c b1 04 be
       -0.20367691 -0.2649751 -0.21237017 -0.1295833
000190 68 35 76 bd d1 5c 07 3d f2 e1 35 bd b7 7f 80 3c
       -0.060109526 0.0330475 -0.04440493 0.0156859
0001a0 a7 c0 9d bd cf 62 2b 3d 32 3c 4b bd e1 0d 88 bd
       -0.07702761 0.041842278 -0.049617954 -0.06643272
0001b0 bf 0c 64 3e 0b 26 56 bd b4 ab 06 be a3 25 8f 3d
       0.22270487 -0.052282374 -0.13151437 0.069896005
0001c0 ca 44 a1 bd 08 76 2c be 18 d8 fb bd 34 fc 16 be
       -0.078744486 -0.168419 -0.12297076 -0.14744645
0001d0 19 91 da bd b0 a9 d8 3d ed 95 d1 bd 99 86 53 bd
       -0.106722064 0.1057924 -0.10233674 -0.051642034
0001e0 14 29 ed 3c e3 b1 d3 bc c8 f8 57 3d 9f 0c 15 3d
       0.028950252 -0.025841659 0.05272749 0.03638899
0001f0 8b 14 d5 3d 4a 0b fe bd 90 c2 40 3e c6 3b 76 3d
       0.10404309 -0.12404497 0.1882422 0.0601156
000200 59 bb 42 be 93 9a 2b 3d 82 f3 73 3c 32 41 c0 bd
       -0.1901678 0.04189546 0.0148896 -0.09387435
000210 e8 7f dd bd 3e e1 2e be 13 4f 53 be be a4 6b bd
       -0.10815412 -0.1707811 -0.20635633 -0.057530157
000220 e0 40 41 3d 0a 88 80 bc eb 9d 79 3d 3c f8 b1 3d
       0.04718101 -0.015689868 0.060941618 0.08689925
000230 38 61 90 be 21 12 b7 bd 43 10 8f 3b a2 ac 26 3e
       -0.28199172 -0.08939005 0.004365952 0.16276792
000240 c0 c0 62 3c 5a 94 41 bd a7 60 df bc ef 56 d8 bc
       0.0138399005 -0.04726062 -0.027267767 -0.02640864
000250 0b 83 68 3d 31 f6 80 3c 0f f6 91 3a ce 2d c8 bc
       0.056765597 0.015742393 0.0011135953 -0.024435904
000260 07 8e d6 3c 9c cf 29 3d e6 9b 2b 3d ff da b6 bd
       0.02619077 0.041457757 0.041896723 -0.08928489
000270 01 f6 4f 3a a2 31 93 bd 38 c4 ed bd 68 dc 2c bc
       0.0007933081 -0.07187201 -0.116096914 -0.010550596
000280 8d 00 a7 3c bc 45 3b 3c 12 ce 7d bd bc 1f b9 bd
       0.020386005 0.0114302 -0.061964102 -0.09039256
000290 6b e9 8c 3c 69 8c 1a 3c 48 d5 5d 3d c0 a8 11 bb
       0.017201146 0.00943289 0.05415848 -0.0022225827
0002a0 ae f8 a0 bd 8d 4d b6 bd 73 46 97 bd 76 15 63 3d
       -0.07859932 -0.089015104 -0.07386484 0.05544039
0002b0 be 22 fa 3b 4e 4c 6d bd d1 64 1b 3d a4 4a 16 3e
       0.007633536 -0.057934098 0.037937943 0.1467691
0002c0 31 ff f8 3b 45 45 b4 bd a5 c4 2b bd a1 f9 01 3d
       0.0075987806 -0.088022746 -0.04193558 0.031732205
0002d0 6c f9 2c bb 0e 0c 54 3d 07 1a ce bd bd 2c 8f bc
       -0.0026393784 0.05176931 -0.10063558 -0.017477388
0002e0 2c bb dd 3d e8 dd 7c 39 46 07 de bc 34 84 90 bc
       0.10826716 0.0002411526 -0.027103078 -0.017641164
0002f0 76 bd 03 bb 8c 9f 45 3d 3b d6 89 bb 63 94 8f 3d
       -0.0020101941 0.04824786 -0.0042064465 0.070107244
000300 6d 99 80 bd 02 da 3b bc 55 1b 81 bc a5 34 04 bd
       -0.06279264 -0.011465551 -0.015760103 -0.03227677
000310 fa fa a6 bd 05 84 16 3c de 93 df bd 19 79 3b 3d
       -0.08153339 0.009186749 -0.10916875 0.045769785
000320 69 f7 bf 3c c4 6b ca ba 07 29 34 3c 7a b6 02 3d
       0.023433404 -0.0015443494 0.01099611 0.031912304
000330 8c 4b b4 3c 62 2b a1 bd 0d da 98 bd 0b 9c 58 bd
       0.02200868 -0.07869603 -0.07463465 -0.05288319
000340 fe 30 a9 3d 4e 03 ac 3d 18 f6 c2 bb dd 01 c7 bd
       0.08261298 0.08399068 -0.005949747 -0.09717152
000350 53 eb 0d bd a6 b3 a5 bd 8d 93 46 3d 8b e0 16 3d
       -0.03464825 -0.08090906 0.04848056 0.036835235
000360 68 73 60 3d db 39 ec 3c 58 af 70 bd 18 2f ab bc
       0.05479756 0.028836181 -0.05876097 -0.02089648
000370 a0 c2 02 bc 58 3e fa bd 8c fa aa 3d b2 06 89 bc
       -0.0079809725 -0.122189224 0.08348569 -0.016726825
000380 57 33 34 bb a1 6e ce 3c e7 00 69 bd 62 5a 09 bd
       -0.0027496421 0.025199236 -0.056885626 -0.03353346
000390 e3 fe 88 3d 37 ca 9c bd a3 1a 7c bd b1 71 98 bd
       0.06689241 -0.07655757 -0.06154884 -0.0744356
0003a0 f7 80 c2 bd 96 6c ba ba c2 9f b7 3d a7 19 40 bd
       -0.09497254 -0.0014223035 0.08966018 -0.046899464
0003b0 8c ff 42 be ca a6 81 bd fa a8 a9 bd 51 bb b0 3c
       -0.19042796 -0.063306406 -0.08284183 0.021573694
0003c0 13 27 18 bd 7c c7 ce bd c2 ec cd bd 3c da 0a 3c
       -0.03714664 -0.100966424 -0.100549236 0.008474883
0003d0 3c cd a1 bd 1e b3 0e bc ed 88 bc bb b7 e3 b2 3d
       -0.079004735 -0.008709697 -0.0057536275 0.087348394
0003e0 fe 0a 5f bd 58 c9 66 bd cf ff 60 bd 4f b3 11 bd
       -0.054453842 -0.05634436 -0.054931458 -0.035571393
0003f0 a5 e7 0e 3e de 12 51 3d aa d0 d7 bd 5f ff 14 bd
       0.13955553 0.051043384 -0.105378464 -0.036376353

cnn.3.bias f4 [32]
000000 90 12 5b 3c 4e 50 3f 3c 9c 81 56 3c ad d0 e3 bc
       0.013371125 0.011676861 0.013092425 -0.027809465
000010 06 86 b9 bd e1 23 9c 3b d8 84 05 3d 1f 84 ae 3c
       -0.09058766 0.0047650193 0.032597393 0.021303235
000020 6e 56 f5 3b 7b db fa 3c 22 82 9a 3b 89 a8 3a 3d
       0.00748711 0.030622235 0.00471522 0.045570884
000030 72 40 a3 bd 99 89 31 bd 03 96 99 3c 09 71 03 3d
       -0.07971276 -0.043344114 0.018748289 0.03209022
000040 ed 4d db 3a f5 e4 9b bd 19 76 5d bd 12 f2 82 bc
       0.0016731598 -0.076120295 -0.054067705 -0.015984569
000050 31 82 c9 bd d9 28 8f 3d 50 77 c5 bd 95 9a 2f 3c
       -0.09839285 0.06990213 -0.09641898 0.010718008
000060 4d bb 47 bd 11 84 d6 bd 20 15 05 3c 05 36 84 bd
       -0.04876261 -0.104744084 0.008122712 -0.06455616
000070 66 ae 9b 3c 71 30 78 bd af 88 5c bc 98 8a 6d bd
       0.019004058 -0.060593072 -0.013460322 -0.0579935

cnn.6.weight f4 [64, 32, 3, 3]
000000 7d 46 39 bb 3d 5e 53 3c 50 af 32 bc 31 00 9f bd
       -0.0028270774 0.012900886 -0.010906056 -0.077637084
000010 2d cb 04 3d c8 57 29 bd ec 52 8b bd ad 9c c2 bd
       0.032420326 -0.04134348 -0.068029255 -0.0950254
000020 2a 05 71 bd af ee 86 bd 9a 85 9d bd 0d f6 3e 3c
       -0.058842815 -0.06588494 -0.07691498 0.011655343
000030 4f a8 10 bc 3e 56 a6 bd fa b8 63 bd a8 41 4a bd
       -0.00882919 -0.08121918 -0.05559633 -0.04937902
000040 29 e5 28 bd 0c 58 b0 bc ab 06 16 bd 68 9e 96 bc
       -0.04123417 -0.021526359 -0.036627453 -0.01838608
000050 7f 78 c2 3c 28 06 fe bc 8c 16 09 bd 49 5b f4 3c
       0.023739098 -0.031008795 -0.033468768 0.029828684
000060 b2 7c 74 bc 13 13 c3 bd f7 6f ad 3b fe 2b 08 bd
       -0.014922308 -0.095251225 0.0052928883 -0.03324508
000070 05 38 6e 3c 1c 2a 40 bd 35 c8 0c 3c 0f eb a6 3c
       0.014539723 -0.04691516 0.008592655 0.020375757
000080 9d 7c 0c bd 26 64 60 bd 86 3e 2a bc 79 ff a2 bc
       -0.034298528 -0.05478301 -0.010390883 -0.01989721
000090 e6 11 a4 3c b7 d2 19 bc bc a7 27 bd be 2c a2 bc
       0.020028066 -0.009388617 -0.04093145 -0.019796725
0000a0 8e 48 c7 ba f0 20 bf 3a 21 2a 27 bc fd c9 5a bc
       -0.0015204118 0.001458196 -0.010202915 -0.013353822
0000b0 ca 1b 37 bd 79 d0 0a bd ff 8c 1a 3d 28 78 d6 3a
       -0.044704236 -0.03389022 0.03773212 0.0016362714
0000c0 79 b3 84 3c 06 52 35 bd e5 a2 06 bd d8 eb c6 bd
       0.01619886 -0.044267677 -0.032870192 -0.097129524
0000d0 3e 6d 96 bd 7c 68 bb 3c 20 32 bb ba c6 a9 94 bd
       -0.07345055 0.02287697 -0.0014281906 -0.07258944
0000e0 23 e7 87 bc 5e f5 2a bd 71 1e f8 bb 18 7a f7 bc
       -0.016589707 -0.041737907 -0.0075719883 -0.030209586
0000f0 ab 9e 45 bd 06 9f 41 bd ed ce 1d bd 6f c4 10 bc
       -0.04824702 -0.047270797 -0.038527418 -0.008835896
000100 e0 d6 eb bc e2 ee 9b bb 1c 2f 00 bd ab cb 16 bd
       -0.028788984 -0.0047587017 -0.031294927 -0.036815327
000110 7d c8 8c bd 48 c0 a6 3c 2e 53 8b bd 36 a8 87 3a
       -0.068741776 0.020355359 -0.06802975 0.0010349813
000120 72 36 1b 3d 64 2d a6 bb 8a 52 9a bd 30 4a 22 3d
       0.03789372 -0.005071329 -0.07535274 0.039621532
000130 20 1c b1 3b ae c0 a0 bb 3e e9 2d bd 7f 47 a3 bd
       0.005404964 -0.0049057817 -0.042458765 -0.07972621
000140 98 33 b5 bd 95 2c a6 bd 8f 93 7d bd 70 dc 13 3d
       -0.08847731 -0.08113972 -0.0619083 0.036098897
000150 d4 24 64 3b a6 5a de bb 12 55 c7 3c 30 c5 e9 38
       0.003481199 -0.0067857085 0.024332557 0.00011147035
000160 c0 06 c5 bc 40 ea 08 bd 05 b2 84 bb 3b 3d a3 bd
       -0.02405107 -0.033426523 -0.004049542 -0.07970663
000170 13 1a b4 bb 5a 0e 59 bd 55 f7 8b bd 79 09 54 bd
       -0.0054962724 -0.052992202 -0.06834284 -0.051766846
000180 8d 0c b7 3c ea ba ec bb 1c 09 81 3c 50 b5 f7 3b
       0.022344852 -0.0072244303 0.015751414 0.007559456
000190 d0 59 92 bd 6c ea b1 3b c4 72 aa bd 96 84 49 bd
       -0.071460366 0.0054295566 -0.08322671 -0.04919871
0001a0 84 f4 c2 3c 0c 61 81 3c a8 68 2a bd 0a 7e 44 bd
       0.023798235 0.015793346 -0.041603714 -0.047971763
0001b0 fc 93 61 bd 8b 4c 37 bd 07 20 2d 3d ac d4 39 bd
       -0.05507277 -0.04475073 0.04226687 -0.045368835
0001c0 a3 66 60 bb f5 5a 01 3d c1 77 31 bc a7 58 18 3c
       -0.0034240864 0.031580884 -0.010831774 0.00929848
0001d0 f3 77 bf bb 1e f4 5b bd 3d 8e 8c bd b0 d9 8f bd
       -0.0058431565 -0.053699605 -0.06863067 -0.070239425
0001e0 42 ea e8 bc ee bb 18 bd 81 f9 45 3b 75 cc 77 bd
       -0.028432015 -0.0372886 0.003020853 -0.06049772
0001f0 9f 1b 3e bc 1e d7 5b bd d4 8f 98 bd 9b 02 79 3c
       -0.011603265 -0.05367195 -0.07449308 0.015198375
000200 c8 27 4f bd b2 60 7e bc f8 60 03 bb 8c 43 5f bd
       -0.050575048 -0.015525984 -0.0020046812 -0.054507777
000210 d6 df e7 bc 2b c0 97 bd fd 61 a2 bd 07 e8 73 bd
       -0.028304975 -0.074097 -0.07928846 -0.05954745
000220 d9 86 a7 bd 77 a9 1a 3c 8a 3e dd 3b 67 d9 53 bd
       -0.08180017 0.009439818 0.00675184 -0.051721003
000230 83 5b 88 bd 76 03 36 3c 7e 68 ac bd c5 a8 95 bd
       -0.066580795 0.011109224 -0.08418368 -0.07307581
000240 a2 ee f4 bc e4 bd e5 3b 89 8c 45 bd 34 54 29 bd
       -0.029898945 0.007011162 -0.048229728 -0.041340068
000250 f1 f2 53 bd 63 3c c7 bc 9a e0 b2 bd 84 2b 4c bd
       -0.05174536 -0.024320787 -0.087342456 -0.049846187
000260 9c ae 8a bc 2f 4a 30 bd c8 23 e9 3b d1 0c b5 3c
       -0.016928963 -0.043039497 0.007114861 0.022100838
000270 9e 92 b4 bd e5 b9 09 3d c9 ce a0 3c fa b0 13 bd
       -0.088170275 0.03362455 0.019629853 -0.03605745
000280 6e 15 c5 3b 6e cb 6e 3c 04 3a 03 bd a0 d5 99 bc
       0.0060145175 0.014574869 -0.03203775 -0.018778622
000290 52 c1 3a 3c 8b 6c 8a bd ca d0 2d bd c2 3a af 3b
       0.01139863 -0.06758984 -0.042435445 0.0053475806
0002a0 cb 9c 1c bd 0a 83 2e bc 11 e8 9f bd 2d 1f a3 bd
       -0.038235467 -0.010651359 -0.07807935 -0.07964931
0002b0 16 69 c3 bd e8 e1 47 bd df 60 b9 bd fa 35 3d bb
       -0.09541528 -0.048799425 -0.0905168 -0.0028871284
0002c0 a6 49 85 bd ab 70 e3 bb 61 26 6c bd b3 5c 30 bd
       -0.06508188 -0.0069409213 -0.05765379 -0.043057155
0002d0 ea 66 ef bc c6 25 80 bc 90 b2 14 3d 4d af 53 3c
       -0.029223878 -0.015643012 0.036303103 0.012920213
0002e0 8e ed 0c 3c 2c 3d 26 bd 78 09 ef 3b 23 e3 27 bd
       0.008601559 -0.04058568 0.00729483 -0.0409881
0002f0 4c fa ae bb 63 7b 97 bd 2b a5 af 3b 08 66 a5 bc
       -0.0053398963 -0.07396581 0.0053602657 -0.020190254
000300 6c 2c 53 bd b8 2f 16 bd 49 ab 8e bd b6 79 e4 ba
       -0.051556036 -0.036666602 -0.06966264 -0.0017431292
000310 76 e4 93 bc e7 0d 3e bd 9c 89 47 3d d6 2c 15 bd
       -0.018053275 -0.046399977 0.04871522 -0.036419712
000320 e8 0a 5b bc a1 6c 0e 3d 6b 98 30 bd 0d 21 a4 bc
       -0.0133692995 0.034771565 -0.043114107 -0.020035291
000330 8e 8c 62 bd 7e 8a 18 bd fb b8 0a bd e3 1b 5f bd
       -0.055309825 -0.03724145 -0.033867817 -0.054469954
000340 fa ed 91 bd 3b d0 f8 3b 2b 2b 0c 3c e8 44 6b bd
       -0.071254686 0.0075931824 0.008555214 -0.05743876
000350 9a c3 33 bd b6 41 62 bd a4 a5 6a bd 4e 43 62 bd
       -0.043887712 -0.055238448 -0.057286873 -0.055239968
000360 af 59 86 bd f4 55 81 bb d0 54 50 bd da ed 97 3c
       -0.065600745 -0.003947014 -0.050862134 0.018546034
000370 65 86 97 bd c1 d0 f3 bb e0 9a d5 bc f5 91 93 bd
       -0.073986806 -0.007440657 -0.026074827 -0.072055735
000380 ee 70 47 bc a0 61 a7 bc 8b 9d 13 bd da af ad bd
       -0.012172921 -0.020432293 -0.036038917 -0.08480807
000390 10 d5 06 bd 98 ed 95 bd ec 54 2c 3b a0 85 23 bc
       -0.032918036 -0.07320708 0.0026295735 -0.009980589
0003a0 72 ac 15 3c 01 79 b2 bd fe b9 50 bb b3 7b 83 bd
       0.009135352 -0.08714486 -0.0031849141 -0.06420078
0003b0 31 20 03 bd 21 11 8a bc b9 8c 11 bd 14 85 91 bd
       -0.032013122 -0.01685387 -0.035534594 -0.07105461
0003c0 57 f9 a2 bd fa 6b e2 bb ac 6d fe bc e9 09 99 bd
       -0.07957714 -0.0069098445 -0.031058155 -0.07472593
0003d0 27 ad 3b bd 9b e9 03 bd fc 91 69 ba e0 aa 4b bd
       -0.045819428 -0.032205205 -0.0008909998 -0.049723506
0003e0 68 8c a7 bc e4 fc 83 39 9e 71 67 3c 93 c5 d4 bc
       -0.020452693 0.00025174685 0.01412621 -0.025973117
0003f0 65 ff 0d bd a1 61 47 bd ca d8 8c bd a8 f1 a1 ba
       -0.03466739 -0.04867709 -0.06877287 -0.0012355344

cnn.6.bias f4 [64]
000000 0b 39 6c bd da 4c bd bd cb e3 c6 3b 5d 62 99 bd
       -0.057671588 -0.09243174 0.0060696355 -0.074894644
000010 ae d6 03 bc f2 d9 81 bd 32 da c1 3c 70 ff 1a bd
       -0.008046789 -0.06340398 0.023663614 -0.03784126
000020 1c b8 85 bd f9 43 75 bd a2 19 8e bd aa b8 b3 3c
       -0.06529257 -0.059879277 -0.06938483 0.02193864
000030 24 cf 04 bc 46 66 50 bd a4 00 94 bd a7 d8 a7 bc
       -0.008106027 -0.050878786 -0.07226685 -0.02048905
000040 5e 71 3f bd ca f5 70 bd a0 f7 8c bb 52 e9 95 bc
       -0.046738975 -0.058828153 -0.00430198 -0.018299732
000050 8b 00 50 bd d2 7b 8b bd 15 6d 81 bd 9b 45 cb bc
       -0.050781768 -0.06810726 -0.06319634 -0.024813464
000060 e3 a5 82 bd c8 b7 43 bd 99 85 14 bd 65 66 8b bd
       -0.06379297 -0.04778269 -0.03626022 -0.068066396
000070 f0 53 8c bc a1 58 03 bd c2 70 8f bb d7 c1 bd bb
       -0.017129868 -0.032066945 -0.0043774555 -0.00579093
000080 ff 89 59 bc 56 67 62 bd 97 92 3f bd a0 1f 91 bc
       -0.01327753 -0.05527433 -0.04677066 -0.017715275
000090 60 09 9e bd f6 e2 e9 bc 2e ab 69 bd 04 68 a3 bb
       -0.07716632 -0.028550606 -0.057048015 -0.004986765
0000a0 bc e5 87 bd 05 2e 8d 3c 9f 48 8b bc 77 2b a4 bd
       -0.06635615 0.017233858 -0.017002402 -0.08016103
0000b0 fe 19 c5 bc 92 b4 ae bc 18 07 7a bd 9c 43 ea bd
       -0.024060246 -0.021326337 -0.06104192 -0.11438677
0000c0 72 ec 06 3d f0 32 1f bd f9 67 1e bb 5b 37 be bb
       0.032940336 -0.038866937 -0.002417086 -0.0058049387
0000d0 5a b3 28 bd 9f 4a eb bc 94 67 18 3c 14 4d b8 ba
       -0.041186668 -0.028722106 0.009302039 -0.0014061057
0000e0 e7 eb 81 3c 89 3f 1c 3c 5a dc 6f bd d1 16 81 bd
       0.015859557 0.009536632 -0.058559753 -0.0630318
0000f0 4c 76 96 bd a2 eb 76 bd 2e b1 f4 bc 40 80 ed bc
       -0.07346782 -0.06028331 -0.029869642 -0.028991818

cnn.9.weight f4 [64, 64, 3, 3]
000000 3c 9c 21 3d 52 33 ff bc 6c 1b 13 bd 0b 89 1e 3d
       0.039455637 -0.031152401 -0.035914823 0.038704913
000010 dc c9 ca bc b9 f6 3a 3a 0e 49 ad bb a5 50 4c 3c
       -0.024754457 0.00071321015 -0.00528825 0.012470399
000020 47 3b b4 3c f7 6e e3 bb a4 fb 4f 3c f2 bd 17 bd
       0.022000922 -0.0069407183 0.012694273 -0.03704638
000030 52 e3 07 3d 70 82 46 3c 2c b8 b1 3c f7 fd 11 3d
       0.033175774 0.01211606 0.021694265 0.03564259
000040 d0 9f b3 3b 45 6c bc bc 8a 68 fc bc cc 6e c6 bc
       0.0054816976 -0.023000846 -0.030811567 -0.024222754
000050 f1 44 89 3b 29 08 ce bc 45 27 b6 3c e8 b7 31 bc
       0.0041891267 -0.025150375 0.022235522 -0.010847069
000060 9b 4d f1 3c da ad 36 3c 76 1f c7 3b 56 7e 1e 3c
       0.02945595 0.011149848 0.0060767485 0.0096736755
000070 0c 13 4e bd 2f 84 8f bd db 45 ef bb 67 82 8a bc
       -0.050311133 -0.07007634 -0.0073020286 -0.016907884
000080 32 4f 0b bd 3f 45 02 bd d4 77 25 3c 6c 82 d5 bc
       -0.034011073 -0.03180432 0.01009937 -0.026063167
000090 52 56 ea 3c a4 64 57 bc a7 0e 05 3c 8a 91 21 bc
       0.028605614 -0.013146553 0.008121169 -0.009861359
0000a0 b9 ec bd 3c b3 ed 88 3c 30 85 e0 bc 36 56 d8 3c
       0.023184167 0.016714906 -0.027407259 0.026408296
0000b0 a3 37 4c bd f4 43 75 bd 77 ae 0a bd 84 a7 ac bc
       -0.049857747 -0.05987926 -0.03385779 -0.021075971
0000c0 61 9c 84 3c ff c8 94 bb a6 e7 7d bd 46 c0 3b 3b
       0.016187849 -0.004540562 -0.061988495 0.002864854
0000d0 56 eb 81 bd 83 f3 b3 bc 66 af 43 3c 20 e3 b2 bc
       -0.06343715 -0.021966701 0.011943674 -0.021836817
0000e0 88 37 21 3b 9c 14 22 bd 2e ec cb 3c ec 28 29 3c
       0.002459975 -0.039570436 0.024892893 0.010324698
0000f0 b4 98 af bc 43 33 1b bd f9 41 3e bd 4d 87 21 3d
       -0.02143512 -0.037890684 -0.046449635 0.039435674
000100 6f 4f b4 3c 17 a2 35 bd 3d 41 82 bb 7f b6 4e bb
       0.022010533 -0.044344034 -0.003975062 -0.0031541882
000110 a6 01 60 bb 12 25 15 bd 09 f6 27 bd 3d a2 70 bc
       -0.003418067 -0.036412306 -0.04100612 -0.014687118
000120 f0 1d e3 bc 2d 5d be 3c 31 e9 58 bc 1c b4 58 bc
       -0.027724236 0.023237789 -0.013239191 -0.013226535
000130 7d cb b8 3c 0b db 3f bc 0d e0 15 3d e8 5e 1e bd
       0.022557968 -0.011709939 0.036590625 -0.03866473
000140 22 20 37 3c a6 f1 6a 3a ab 36 9b bd 5f 03 98 bd
       0.011177095 0.00089624 -0.075787865 -0.07422518
000150 40 16 b2 bd ad bd cd bc c2 45 30 bd 75 a1 e1 bc
       -0.0869565 -0.025114859 -0.043035276 -0.027542809
000160 f1 25 9b bd e0 76 c7 bd e5 34 1f bd b4 11 a7 bd
       -0.07575596 -0.097394705 -0.038868804 -0.081576735
000170 5f 23 6f bc 9d f0 91 bd c4 d9 ef bc db 72 10 bb
       -0.0145958355 -0.071259715 -0.029278643 -0.0022041115
000180 4a 13 a3 bc c2 bc a7 bb 0e 51 fd 3c bd 51 32 3c
       -0.019906659 -0.005118937 0.030922439 0.010883746
000190 00 30 e1 3c 78 c9 af bc f5 71 c6 3c c2 bc f8 bc
       0.027488708 -0.021458372 0.02422426 -0.030363444
0001a0 bc 44 ba 3c ff b0 e1 3c 5e 67 14 3d 6e 0d 3f 3a
       0.022737853 0.027550219 0.03623139 0.0007288073
0001b0 f8 56 58 3c 1c 22 40 3c d6 cd bb bb 7e 17 7f 3c
       0.013204329 0.011726882 -0.0057313247 0.015569566
0001c0 90 cb ed bc ae 99 01 bd a4 c8 c9 3c 4b 36 94 3c
       -0.02902773 -0.0316407 0.024631806 0.018092295
0001d0 26 70 02 bd f3 2e 15 bd 74 aa 0c 3d b3 3f e0 bb
       -0.031845234 -0.036421727 0.034342244 -0.006843531
0001e0 06 1a 3c ba 22 cd d3 3c ff 7b 11 bd d0 c6 3d 3c
       -0.00071755087 0.02585465 -0.035518643 0.011583045
0001f0 d6 f7 0b bd ab 00 11 bd 22 cf 42 bd 84 f4 2c bc
       -0.0341719 -0.035401028 -0.04756082 -0.010556344
000200 cd 4e 0f 3d 69 c0 d3 3c 1e 6b 8f bc 3c dd 09 3d
       0.03498726 0.025848584 -0.017507132 0.03365825
000210 2f 0a b7 3a 98 43 81 3c 5f e5 27 bd 84 87 b8 3c
       0.0013964827 0.015779302 -0.04099023 0.022525556
000220 cc 66 44 bc 0d be b2 bb 5f a9 27 bd de a4 00 bc
       -0.011987399 -0.0054547847 -0.04093301 -0.007851807
000230 53 fd 48 bd ae 2a e2 bc 30 94 e8 3c 8f 32 9d 3c
       -0.049069714 -0.027608242 0.028390974 0.019189147
000240 3f ae 06 bd a4 7c f9 3a de 11 da bb e8 d8 e9 bc
       -0.032881018 0.0019034338 -0.006654962 -0.028545812
000250 b9 77 b6 bb 93 91 a4 bc f6 99 00 3b ac d5 81 3c
       -0.0055684713 -0.020088946 0.0019623018 0.015848957
000260 7f 7d 1d 3a 55 34 38 bc e2 c9 69 bd ab e0 63 bd
       0.0006007775 -0.011242946 -0.057077296 -0.055634182
000270 11 15 63 bd da a7 e5 bc dd 7e 0a bd 15 e0 4b bd
       -0.055440012 -0.02803414 -0.033812393 -0.04977425
000280 82 ac 9b bd 3e 8b 92 bd 03 01 55 3d 44 d3 9a 3c
       -0.07601263 -0.071554646 0.052002918 0.018899567
000290 ee fd ab bc 52 34 3d 3d 08 cd 36 3c ef 92 b4 bc
       -0.020995107 0.046192475 0.011157282 -0.02204272
0002a0 ef fc 32 ba 76 63 b2 bb f5 c8 b3 3b ab bb 34 bc
       -0.0006827851 -0.0054439856 0.0054866024 -0.011031072
0002b0 35 61 55 3b 22 da 06 3c ae f5 00 bc c7 95 22 bd
       0.003255916 0.008230718 -0.007871075 -0.03969362
0002c0 3f 2b 2b bd 32 58 ad bc ea ae 19 bd 04 30 0e bc
       -0.04178929 -0.021160219 -0.037520327 -0.00867844
0002d0 aa 14 2e 3d 89 0d 48 3d 54 bb 48 3b 4b ca 50 bc
       0.042500176 0.048841033 0.0030629234 -0.012743543
0002e0 81 b0 8e bc bd d1 2a 3c 4d 3b 51 3c 91 41 fe 3c
       -0.017418148 0.010425982 0.012770486 0.031037124
0002f0 32 d2 1f 3c 8f 7a 0f 3c 8f b5 51 bc 6e 53 cc 3b
       0.009754704 0.008757248 -0.012799635 0.0062355315
000300 7c 58 f3 3c 81 31 08 3c 44 07 96 bb 30 75 b3 bc
       0.029705279 0.008312584 -0.004578503 -0.021906465
000310 9d 75 f6 3a 82 cc 19 bd b0 d7 20 3d a5 d9 f4 bc
       0.0018803362 -0.03754855 0.039268196 -0.029888937
000320 1f 16 3a bb d3 a9 95 bb 54 ef 87 bc 21 d1 35 3c
       -0.0028394533 -0.0045673638 -0.016593613 0.0110972235
000330 c5 63 83 bb 67 6a 15 bd c0 4b fe bc 2a a1 e2 bc
       -0.004009696 -0.036478426 -0.03104198 -0.02766474
000340 6e 75 93 bb 74 21 95 3c f4 20 02 3d df 06 02 3d
       -0.0045000827 0.018204428 0.031769708 0.031744834
000350 f4 fc 13 bd e8 4a 07 bd 32 8e 9a bc 7b 9b 09 3d
       -0.036129907 -0.03303042 -0.018866632 0.033595543
000360 da aa 82 bd fd 79 be 3c 1d b6 bf bc 90 09 5e 3c
       -0.063802436 0.023251528 -0.023402268 0.013552085
000370 b1 52 14 bd de f6 4a bd 20 e2 01 bd f6 18 0d 3c
       -0.036211673 -0.049551837 -0.03170979 0.008611908
000380 35 92 4e bd 77 06 9d bc bf 1b a2 bc 0c 41 b7 bc
       -0.050432403 -0.019168122 -0.019788621 -0.022369884
000390 dc d1 86 3c 81 00 32 3b 89 e3 21 3c b6 4f 2c 3c
       0.01645749 0.0027160945 0.009880909 0.010517051
0003a0 34 7b 5f b9 f4 e6 97 bc 0f 35 16 3d df 76 8a 3b
       -0.00021312834 -0.018542744 0.036671694 0.0042255963
0003b0 3d 1a 2b bc ef 1f 9e bc 7c 96 6d 3c ce e7 d2 3c
       -0.010443267 -0.019302336 0.01450121 0.025745299
0003c0 49 e0 72 b9 0d 65 f7 bc fb 43 b8 3c 66 22 51 bc
       -0.00023162471 -0.030199552 0.022493353 -0.012764549
0003d0 e5 89 39 3d 82 6f 81 3c 42 7f 51 bc e5 c7 c5 3b
       0.045297522 0.015800241 -0.012786688 0.006035792
0003e0 99 a0 a0 3b c9 48 1d 3b 5b 6b 91 bc a5 65 32 bc
       0.004901957 0.0023999682 -0.017751386 -0.010888492
0003f0 30 15 10 bd 23 c2 b4 bc 18 9f 85 3c 22 1f ae bc
       -0.035176456 -0.022065228 0.016311213 -0.02125508

cnn.9.bias f4 [64]
000000 9e c3 e4 3c 47 a2 14 bd a8 c1 1a bc 0c 40 92 bd
       0.027925309 -0.036287572 -0.009445585 -0.07141122
000010 62 3f 45 3c ae c1 07 bd cb 48 94 3d be b1 e0 bb
       0.012039037 -0.03314369 0.07240447 -0.006857126
000020 2f ce 5f 3d 2e 59 10 bb 75 65 0c bb 0f 32 3c 3d
       0.05463999 -0.0022025811 -0.0021422778 0.045946177
000030 0e 46 28 bc 88 e8 bc bc f5 aa 55 3d 6b 51 e8 bc
       -0.010270609 -0.023060098 0.05216499 -0.028359136
000040 d9 bc 98 3c 38 3f 1a bd f9 46 80 3d 89 d9 c9 bc
       0.018644737 -0.037657946 0.06263537 -0.024639862
000050 43 26 16 3d 8a 23 28 bd 89 b8 47 bd 6f a1 13 bd
       0.036657583 -0.041049518 -0.04875997 -0.036042627
000060 8b e2 34 bd 4a a3 83 3c 89 33 fd 3b 71 02 2e bd
       -0.04416136 0.016069073 0.0077270907 -0.042482797
000070 5e 3f ef 3b 8f 57 c7 bc 7d 2c b0 bd 83 b1 a1 3b
       0.007301255 -0.024333743 -0.086022355 0.004934491
000080 9e f8 2e 3c ef 68 9a bc 04 b1 64 3b 35 c2 46 bd
       0.010679392 -0.018848864 0.0034895549 -0.048525054
000090 50 24 42 bd 49 89 2e 3c 4a f8 62 3d 6a 6e fa 3c
       -0.04739791 0.0106528485 0.05541257 0.030570228
0000a0 6b 47 0a 3d 45 cc ff 3c 46 be e7 3c 54 e6 b7 3b
       0.033759516 0.031225333 0.028288972 0.005612174
0000b0 70 5a 6a 3d a1 4b 92 3d 54 f7 dd bc 5b b3 56 bc
       0.057215154 0.07143331 -0.027095474 -0.013104285
0000c0 5d 9f 3d 3d 3e d5 52 bb 59 1f 06 3d 9c 67 24 3d
       0.04629456 -0.003217056 0.03274474 0.040137872
0000d0 fe 90 8e bc 94 f2 8c 3c 60 9a a7 bc 25 ec 30 3d
       -0.017403122 0.017205514 -0.020459354 0.043193955
0000e0 6e 51 c2 bc 97 ad 24 bd 25 ed aa 3b f7 75 80 bd
       -0.02372047 -0.04020461 0.005216258 -0.062725
0000f0 d8 92 10 3d 03 04 1a bd cc e7 09 bd 73 4a f9 bc
       0.03529629 -0.037601482 -0.033668324 -0.030431008

mut_mlp.0.weight f4 [16, 4]
000000 3b 05 05 3e 70 f4 6f 3e 87 2f 39 be 53 07 f1 be
       0.12990277 0.2343309 -0.18084536 -0.470759
000010 1b 38 7b 3d 41 eb db be fe e8 1a be 9d b4 9b 3e
       0.061332803 -0.42952922 -0.15127942 0.30411234
000020 e2 ae ad 3d d2 5a e0 3e 63 10 10 be 97 d3 48 3d
       0.08480622 0.4381929 -0.14068751 0.049029913
000030 c6 e4 a7 3e ff 55 83 be 7e 32 5a 3d 4d d0 ef 3e
       0.32791728 -0.25651547 0.05327081 0.46838608
000040 5f 0b 19 be 12 2d 6b be 1f 99 87 3e 5e 67 da 3e
       -0.14945744 -0.22966412 0.2648401 0.42656988
000050 d8 38 00 3f 3a 23 8f be 93 98 b5 be 1b 58 fd bc
       0.50086737 -0.27956563 -0.35467967 -0.030925801
000060 98 6c 36 be 17 52 9a 3d 5d 0d 46 3e af 37 31 bf
       -0.17814863 0.07535189 0.19341035 -0.6922559
000070 78 c6 1c 3f 48 65 7a 3e 24 31 04 3f 04 78 c3 be
       0.6124034 0.24452698 0.5163748 -0.38177502
000080 1b f7 4d 3c 2d 81 36 be 50 34 56 be 64 12 63 be
       0.012571122 -0.17822714 -0.20918393 -0.22174984
000090 5a b5 ff 3c ab 3a bc be 3c d4 35 3e 48 a8 16 bc
       0.031214405 -0.3676351 0.17756742 -0.009195395
0000a0 2e a5 06 3f 90 4d 83 be c4 2b 83 be f4 5d 05 3f
       0.52595794 -0.25645113 -0.25619328 0.52096486
0000b0 c3 26 e7 3e f6 5a 8d 3d 92 bc 04 3f 5b 08 7e 3d
       0.4514676 0.06902115 0.51850235 0.062019687
0000c0 79 40 3b bf 07 be bf be 1c 07 a7 be 54 e5 85 3e
       -0.7314525 -0.37449667 -0.32622612 0.26151526
0000d0 87 51 25 be cc 6a c4 bd 8a c2 73 3d bd c0 b2 3e
       -0.16144381 -0.095906824 0.0595117 0.34912673
0000e0 e2 b7 41 3e 1d 64 8d be b5 86 fa 3e 65 1b 92 3e
       0.18917802 -0.27615443 0.48930898 0.28536525
0000f0 a9 5d 43 bf ba a8 4f be 46 b1 52 3e b4 51 17 bf
       -0.7631479 -0.20279208 0.20575437 -0.59109044

mut_mlp.0.bias f4 [16]
000000 0b 8f b6 bc 4b 0e 41 be a1 a3 52 3e bf 85 8a be
       -0.022285005 -0.18853109 0.20570232 -0.27055165
000010 38 01 3c be f1 2c be 3d a6 50 ea 3c 6f b4 98 3e
       -0.1835984 0.09285916 0.02860291 0.2982516
000020 0f 17 f9 bb 96 e5 7d be d2 20 6e be a9 03 ee be
       -0.0076016258 -0.24794611 -0.23254707 -0.46487167
000030 0c 52 d0 3c 25 e4 59 be 3a 81 b0 bd 6e 76 a9 be
       0.025429748 -0.21278436 -0.08618398 -0.33098167

mut_mlp.2.weight f4 [16, 16]
000000 7d a7 23 be 3a fa bf 3d 35 8b 82 3e cc 6d 24 3e
       -0.1598186 0.09373899 0.25496832 0.16057509
000010 b0 8a de 3d f6 02 55 be c7 ed 12 3e 2e a9 44 be
       0.10866296 -0.20801911 0.14348517 -0.19205162
000020 0b 4c 05 bd 23 b0 08 3d 47 01 1f 3e 92 e5 f8 bd
       -0.032543223 0.033371102 0.15527831 -0.12153162
000030 bb 9d 85 bd 23 69 c9 3d d2 32 97 be 2d 3a 3f 3e
       -0.06524225 0.09834506 -0.2953096 0.18674536
000040 72 b8 28 3e a0 dc f5 3d 9e 40 16 be e6 2f 88 be
       0.1647661 0.120049715 -0.14673087 -0.26599044
000050 8c a4 01 3e e1 ca 82 bd 56 12 f4 3e e1 03 bc bd
       0.12660426 -0.06386352 0.4767024 -0.09180427
000060 02 a7 13 be 7d 8e 51 be db 41 3a 3e 61 fe b5 3d
       -0.14419177 -0.20464511 0.18189184 0.088864096
000070 1f 91 28 3e b1 d3 04 3e a6 47 30 3d 18 3e 69 3e
       0.1646161 0.12971379 0.04303708 0.22777593
000080 14 ca d8 be 14 0f 50 3d 82 b7 ff bd b3 d4 b4 bc
       -0.42341673 0.05079563 -0.12486173 -0.02207408
000090 32 42 97 be 5c a4 b8 bc f4 6f 4d 3e 6f 7d 92 be
       -0.2954269 -0.02253931 0.20062238 -0.28611323
0000a0 f3 2c 46 be 44 22 71 bc bf 5a 9e bd ba d2 60 3e
       -0.19353084 -0.014717642 -0.07732152 0.21955386
0000b0 c1 38 fc 3d 2a 35 02 be d7 17 90 3c b6 c0 37 3e
       0.123155124 -0.12715593 0.017589493 0.17944607
0000c0 1b fb 88 bd 55 ec fb bd be 21 5a 3d f8 e1 66 be
       -0.066885196 -0.12300936 0.053254835 -0.22547138
0000d0 8a 43 ac be 9b e2 60 be 84 c9 af 3e c0 4f bf bd
       -0.33645278 -0.21961443 0.34333432 -0.09341383
0000e0 0b ea c8 3d b0 c7 91 be 99 1e 9d 3d 9d 14 0d be
       0.09810265 -0.28472662 0.07671852 -0.13777395
0000f0 ff 43 12 3e 99 6b 91 be 2d 6c b8 bd 50 86 cb 3c
       0.14283751 -0.28402403 -0.09005008 0.024844319
000100 8a 29 3f 3d 29 55 45 be ca 7b 3f be 93 91 b4 bc
       0.046670474 -0.19270767 -0.18699566 -0.022042071
000110 14 75 5c bd 02 a4 9e 3d f8 80 cf 3c 82 58 65 3e
       -0.053822592 0.07746126 0.025330052 0.22397044
000120 df 81 4f 3e 41 09 8c 3d 62 4e 54 be 4f 64 85 3c
       0.20264386 0.068377025 -0.20733026 0.016283182
000130 9f ff 85 3e 62 8b da bd ae 0d 1b be 98 2f 72 bc
       0.26171586 -0.106711164 -0.15141937 -0.014781855
000140 a5 5b 15 3e 6c 87 7d bd 14 75 01 bd bd 1f f7 3d
       0.14585741 -0.061896726 -0.031605795 0.120666005
000150 eb 19 bc bd 51 88 0a 3e 4b 40 34 be f8 ba 46 3d
       -0.09184631 0.13528563 -0.17602651 0.04851815
000160 09 ea 29 3e 11 1d 80 be 72 4e 0f bc 00 40 0d 3e
       0.16593184 -0.25022176 -0.00874673 0.13793945
000170 ce 76 6f bd 16 57 b5 bd 8b 87 36 3e d9 be e1 3c
       -0.05846291 -0.08854501 0.17825143 0.027556824
000180 e9 2d c6 bd e1 7c d2 bd 7f 0d 2f be 7a f9 59 3e
       -0.096767254 -0.10277725 -0.17094992 0.21286574
000190 a6 be 87 bd cc c1 f7 3d ba 57 90 3e ea 4a 23 3e
       -0.0662816 0.12097511 0.2819193 0.15946546
0001a0 e5 6c 11 be 30 84 e4 3d 32 14 36 3e 52 87 4e be
       -0.14201696 0.11158025 0.17781141 -0.20168808
0001b0 0d d1 e6 bc 8e 9d 66 3e e3 83 dc bd de a3 87 be
       -0.028175855 0.2252104 -0.10767343 -0.26492208
0001c0 84 d3 43 3e b6 bb fd bd 6d 1d 29 3e be af e9 3d
       0.19123656 -0.12389319 0.16515131 0.11410473
0001d0 85 0f b9 3d 2e 9b 3f bd d1 c1 bf bd 1e 37 a9 bd
       0.09036163 -0.04677885 -0.093631394 -0.08262466
0001e0 63 e2 96 3d a8 6a d4 3d 90 36 37 bc ec e0 b7 be
       0.073673986 0.103719056 -0.011182442 -0.3591379
0001f0 02 91 25 bd 13 b6 74 3e ba 5a c3 bd 69 b4 94 3e
       -0.040421493 0.23897581 -0.09538789 0.29043892
000200 6e 0b 03 be 2a e4 33 3e 72 a6 67 3e 6c 6b 78 be
       -0.12797329 0.17567506 0.22622088 -0.24259728
000210 57 3e aa bd 4e 9e 95 be 86 76 55 3c 6e 9f 45 be
       -0.08312672 -0.2922234 0.0130287465 -0.19299099
000220 0a cf 12 3e 55 a8 1e 3e 4a 65 56 bd 28 1d 81 be
       0.14336792 0.15493901 -0.05234269 -0.25217557
000230 0a 4a 35 3e 05 90 b8 bd 58 10 06 3e bc a9 91 bd
       0.17704025 -0.090118445 0.13092172 -0.071124524
000240 3f 78 14 3e ca 72 76 bc a1 b5 14 3e d0 ec 2a 3e
       0.14498995 -0.015042016 0.14522411 0.166919
000250 8d 2d 83 3d a9 e8 a5 3d 47 79 95 3d 6f d2 38 be
       0.064051725 0.08101017 0.072985224 -0.18049024
000260 04 4b 67 3e a9 91 06 be 2a 76 26 bd cf 6a b1 bc
       0.2258721 -0.13141502 -0.040640034 -0.021657376
000270 ed ef 7f be fb 7e 09 bd 86 83 6e 3d ba fd ad 3d
       -0.24993868 -0.033568364 0.0582309 0.0849566
000280 5e 5f 5b be a2 74 59 be b6 ef 48 3e 7d 15 04 3e
       -0.21423098 -0.21235898 0.19622692 0.12898822
000290 1b 7d 7b 3d d9 9a c6 bd 34 dc 7f be 3a b0 71 3e
       0.061398607 -0.096975036 -0.24986345 0.23602381
0002a0 05 be 06 be b5 f2 ba bd 20 17 8f bd 54 a9 80 3c
       -0.13158424 -0.09128324 -0.069868326 0.015705742
0002b0 71 ff 80 be 89 31 46 be 75 22 31 be 06 90 75 be
       -0.25194886 -0.19354834 -0.172983 -0.23980722
0002c0 bb 3b 82 be 85 43 45 be 34 c5 04 bf 4f fe a1 bd
       -0.25436196 -0.19264038 -0.5186341 -0.07909834
0002d0 60 57 ac 3d 76 cb 61 3d 3f ee 35 3d 16 fa 14 3e
       0.08415103 0.055125676 0.044416662 0.14548525
0002e0 10 c3 ce 3d d1 87 87 bd 62 12 4b be 72 2b 78 be
       0.10095799 -0.06617702 -0.19831231 -0.24235323
0002f0 51 39 b2 3d 47 69 3d 3c c8 5e 43 3e 80 7f a4 3e
       0.087023385 0.011560745 0.19079125 0.32128525
000300 63 46 3e 3e 91 12 76 be 17 ff 3f be 40 1a 1f 3e
       0.18581538 -0.2403052 -0.18749653 0.15537357
000310 f7 85 a4 bc 84 e6 68 be 99 d5 ad 3d 35 55 02 bd
       -0.02008341 -0.22744185 0.08488006 -0.03181954
000320 a6 d3 ac 3d 67 2e 66 3b 78 a4 97 3d 73 4a 63 be
       0.08438806 0.0035122873 0.07404417 -0.22196369
000330 f7 b1 02 3e 6c b5 00 be 63 9c 86 bc c5 dd 13 3e
       0.127632 -0.12569207 -0.016431993 0.14440067
000340 08 3f 4b 3e 94 bf 09 be 14 03 60 be f8 a0 77 3d
       0.19848263 -0.13451988 -0.21876174 0.060456246
000350 8a c2 30 3e b8 9c c9 bb 0c af 1a bd d8 fb dd bc
       0.17261711 -0.0061527155 -0.037764594 -0.027097628
000360 38 ae c6 3d 68 0f 35 be 58 05 19 be 40 67 7c bd
       0.09701198 -0.17681658 -0.14943445 -0.061621904
000370 64 e2 41 be 30 9d 91 3d 7c 19 b9 3c 60 47 39 be
       -0.18934017 0.07110059 0.02259516 -0.18093634
000380 11 7c 2d be f1 fc 50 be 32 90 4f 3c 94 88 06 bd
       -0.16941859 -0.2040899 0.012668656 -0.032845095
000390 66 69 2b be 01 81 e1 3d ca 20 89 bd 83 73 80 3e
       -0.16739425 0.11010934 -0.06695707 0.25088128
0003a0 73 2b ca 3d e0 95 82 3e 7b 13 48 be 97 a0 2b 3e
       0.098715685 0.2550497 -0.19538681 0.16760479
0003b0 35 6f e6 bd 62 80 be bd ff 2c 74 3e 07 67 40 3c
       -0.1125168 -0.09301831 0.2384529 0.011743314
0003c0 4d 1e 99 3d 5c 7f 39 3e 35 32 71 be 19 82 be 3d
       0.074764825 0.1811499 -0.23554309 0.09302158
0003d0 97 f2 f6 bd 62 37 77 3e 07 73 b0 3d cc f0 80 3e
       -0.12057989 0.2414222 0.0861569 0.25183713
0003e0 8e 0f ff 3d f0 28 72 be 09 8f 5c 3e 4a 1f 41 3e
       0.12454139 -0.23648429 0.21538939 0.18859592
0003f0 e9 88 22 be 2c cc 01 be 6c 3d 8d bd 1d 28 ac bd
       -0.1587254 -0.12675542 -0.06896481 -0.084060885

mut_mlp.2.bias f4 [16]
000000 dc 89 06 3e 45 d2 56 bc d6 c3 72 be 65 7a 2e 3e
       0.13138527 -0.013111656 -0.23707518 0.17038877
000010 9f fa 2d 3d b8 87 56 be cd 76 50 bd 96 17 ed 3d
       0.04247534 -0.2095021 -0.050894547 0.11576764
000020 66 9d d7 3c b7 a7 81 be a8 0e 16 3d c9 e2 fa 3c
       0.02632017 -0.2532327 0.03663507 0.030625718
000030 31 a0 4d be c6 1d 11 be 9f de 27 be 1f 1e 29 be
       -0.2008064 -0.14171514 -0.16393517 -0.16515397

head.0.weight f4 [64, 80]
000000 9a 3d 89 bd 94 94 eb bd 2e da 9e 3c 68 82 ae bd
       -0.06701203 -0.115029484 0.019391146 -0.08520967
000010 d2 bc 4a bc a9 a6 d6 3c 4f f4 55 3c 78 37 15 3d
       -0.01237412 0.026202517 0.013058736 0.036429852
000020 bd 8f 13 be ba 7c 12 bc 80 15 33 bd b4 ee 8c bc
       -0.144103 -0.00894087 -0.043721676 -0.017203666
000030 24 cd d6 bd fc 43 f8 3b 5b 47 03 bc a0 b1 e6 bd
       -0.10488346 0.0075764637 -0.008012618 -0.11264348
000040 52 f2 65 bb d9 2e 68 bc 3d 72 09 3c d8 90 30 bc
       -0.003508706 -0.014171326 0.008389053 -0.010776721
000050 26 39 81 bd 62 93 ad 3d f3 55 9e 3d 78 15 88 39
       -0.06309728 0.08475377 0.07731237 0.00025955937
000060 c2 9e 9e bc 03 f0 ba 3d bf 37 42 3d 3c 0d 38 3d
       -0.019362811 0.0912781 0.047416445 0.044934496
000070 15 77 9c 3d 3e af c2 bd 0e 5b d7 bc 4e 2f af bc
       0.076399006 -0.09506081 -0.026288535 -0.021384861
000080 1e 70 5f 3d 53 da df bd 84 1e 9e bd 6b ec 9e 3c
       0.054550283 -0.10930314 -0.07720664 0.019399842
000090 f4 4e 61 3c 8d ac c8 bd 59 57 d3 bd fa 62 53 3d
       0.013751734 -0.097985364 -0.103193946 0.051608063
0000a0 3d e9 d9 3c 05 47 09 bd b6 92 c4 3b 6b 2f 55 3d
       0.026600474 -0.033514995 0.0059989346 0.052047174
0000b0 dc 38 90 bd 53 9b 05 be ae 1f 94 bd b5 b5 19 bd
       -0.07042095 -0.13047533 -0.07232605 -0.037526805
0000c0 5d a4 12 bd bd 3a 48 3d b3 d0 f3 bc de 94 98 bd
       -0.03580128 0.048884142 -0.029762601 -0.07450269
0000d0 e7 da 23 3d 78 ae a9 bd 68 04 4e bd 2c 0d e4 3b
       0.040003683 -0.082852304 -0.05029717 0.006959578
0000e0 99 92 b7 3d 0c be 7a bc ba ca 85 bd 7a f3 d5 bc
       0.08963508 -0.0153041 -0.06532808 -0.026117075
0000f0 76 96 49 bd f7 2d 19 3c ea e2 cc bd 0e 36 c8 bd
       -0.049215756 0.009349338 -0.10004218 -0.09775935
000100 d9 70 0d be 17 29 15 3c dd 28 a2 bd f4 15 c5 bd
       -0.13812579 0.009104035 -0.0791795 -0.09623328
000110 d9 24 fb 3c 3c 9e 05 bd b6 7f 94 bd 8a d8 84 bd
       0.030657219 -0.032621607 -0.072509214 -0.06486614
000120 fa bc dd 3b 8f 4a 5e bd 67 a5 6f bd b4 06 49 bc
       0.0067669125 -0.054270323 -0.05850735 -0.012269665
000130 ff 4b 9e 3d df ce cb 3d fc f5 42 bd 69 94 86 bc
       0.07729339 0.09951567 -0.04759787 -0.01642819
000140 6d 8d 98 3d 3e c9 81 bd ef 91 05 bd d6 bf 44 bd
       0.0744885 -0.06337212 -0.032609876 -0.04803451
000150 66 39 c4 bd 7c 4c e5 bb df 4b a3 ba 87 92 c0 3d
       -0.095812604 -0.006997643 -0.0012458524 0.09402948
000160 cd 9b 52 bc 4c 05 a9 bb 05 3d d7 bd 89 e5 8a 3d
       -0.012854529 -0.005158102 -0.105096854 0.067820616
000170 35 05 36 bd 0d fc 32 bd 91 25 b1 bc fb ff d6 bd
       -0.04443856 -0.043697406 -0.021624358 -0.10498043
000180 ef cd 62 bc f3 cf 98 3d 5b d7 af 3d b9 0d ef bd
       -0.013843044 0.07461538 0.08585998 -0.11672539
000190 5a e4 d9 bd 5a 3f 0a 3d 15 7a 4c bd 6f 90 3a bd
       -0.10639258 0.033751823 -0.049921114 -0.0455479
0001a0 b4 e6 80 3b 9a 14 c0 bd 55 29 9c bb cb 44 86 3c
       0.003933752 -0.093789294 -0.0047656693 0.016390225
0001b0 45 17 5c bd 57 cd 1d 3d 9d e3 9c 3d 92 85 96 3d
       -0.05373313 0.038525905 0.07660601 0.07349695
0001c0 c3 86 e4 bb b6 1f a8 bd 36 9d a5 bd f0 a6 d3 bd
       -0.0069740727 -0.082091734 -0.08086626 -0.10334575
0001d0 fa 2c dd bc df f0 4c bb e8 80 0d bc 97 b1 c2 3b
       -0.026998986 -0.00312715 -0.008636691 0.0059415805
0001e0 f2 7b 05 bd a9 ee 8e 3d 50 74 8a bd f5 80 cb bd
       -0.032588907 0.069791146 -0.06760466 -0.09936706
0001f0 1c 5b 8f bd bb a7 0c 3d 62 1b f1 3c 52 db b7 bd
       -0.069997996 0.034339648 0.029432002 -0.08977379
000200 52 e6 9c 3d ea eb c3 3d 8c 74 a0 bd 9e ab 22 3c
       0.076611176 0.095664814 -0.078347296 0.009928612
000210 b9 66 2a 3d 15 c6 c3 bd ba b6 14 3d 7c 77 0a bd
       0.04160187 -0.095592655 0.036307074 -0.033805355
000220 40 15 1e bd 56 27 07 bc 86 27 61 3d 42 d8 5f bd
       -0.038594484 -0.0082491245 0.054969333 -0.0546496
000230 42 e3 a2 bd 65 84 7f 3d 81 12 86 bd b1 a9 b5 3d
       -0.07953502 0.06238212 -0.06546498 0.08870257
000240 bd de f2 bd fe 8e cd bd 63 d9 89 3d 2e c9 3a 3c
       -0.1185889 -0.10037039 0.06730916 0.011400504
000250 0f c7 41 3d 6b a6 aa bd f8 f0 4d 3c 3b 9b da bd
       0.047308978 -0.08332523 0.012569658 -0.10674139
000260 50 f3 0b 3d 80 c7 38 3b 74 88 40 bd 49 c7 23 3d
       0.034167588 0.0028195083 -0.04700513 0.039984975
000270 50 d7 89 bb f2 45 85 bd 3f ca a9 bc ca 58 12 3c
       -0.0042065755 -0.06507482 -0.020726321 0.008932302
000280 81 99 89 bd cc 6c d0 bc 80 7a ee bd e1 f1 af bd
       -0.06718732 -0.025442503 -0.11644459 -0.085910566
000290 d2 e2 b4 3d 7f 2a e5 3a 07 05 6f 3c 4f d6 cd bd
       0.08832325 0.0017483978 0.014588601 -0.10050642
0002a0 86 26 0d bd aa aa 78 bd d1 ed 74 bd 73 5e af bc
       -0.034460567 -0.060709633 -0.059797112 -0.021407342
0002b0 3c 4e b3 bd be 00 ae 3d 5d 21 d3 3d 91 44 24 3d
       -0.087551564 0.08496235 0.10309098 0.040104453
0002c0 72 05 59 bd 82 80 8b bd 48 f2 9f bd 2a 20 6e bd
       -0.05298371 -0.0681162 -0.07809883 -0.058136143
0002d0 18 22 8f bd 80 fe ca 3d a4 4f 9e 3d 5b 78 89 bd
       -0.06988925 0.09911823 0.07730034 -0.06712409
0002e0 c5 b6 0b 3d 2b 49 a9 bd 43 73 a6 bd 6a cf 67 3c
       0.03410985 -0.08265909 -0.08127453 0.014148572
0002f0 c9 40 bb 3c 18 41 2d bd 31 74 d8 bd 8a 65 ab bd
       0.02285804 -0.042298406 -0.10569037 -0.083689764
000300 4e 2a 65 bd d1 38 0f 3d 91 63 43 3d 21 c0 5e 3d
       -0.055948548 0.034966294 0.047702376 0.054382447
000310 68 6c 23 3d d3 ac e0 3c 1a 51 26 bd ca 53 90 3d
       0.039898306 0.027426159 -0.04060469 0.070472315
000320 ff c0 9d 3d 90 99 88 3d f7 bf 50 bd bc 98 2b bc
       0.07702827 0.06669915 -0.050964322 -0.010473426
000330 fa 4a 05 3d c0 c3 61 3d bd d9 7a bc b3 b0 8c 3c
       0.032542206 0.055118322 -0.015310702 0.0171741
000340 5a 28 a8 3d f9 e8 12 bb 20 a8 65 3d ff ee 7b 3d
       0.082108214 -0.0022416695 0.05606854 0.06150722
000350 20 21 bd bd 9e 14 db bb 25 f9 df bc 33 f4 1a 3d
       -0.09234834 -0.0066858074 -0.027340481 0.037830543
000360 0e 12 a1 3b 15 22 bb bd c8 61 a7 bd f9 e9 cc 3d
       0.0049154824 -0.0913736 -0.08172947 0.10005564
000370 78 22 e5 3c 3f 62 1e 3c c5 bb 7d bd 4d ef 02 3d
       0.027970538 0.009666978 -0.06194665 0.031966496
000380 71 bc af bd 97 9f cd 3d d7 c6 c7 bd d1 ef db 3c
       -0.08580864 0.10040205 -0.097547226 0.026847752
000390 8d 5e 72 bc f3 52 f0 3c 85 94 9d bb 1f 15 82 bd
       -0.0147930505 0.029336428 -0.0048089647 -0.06351685
0003a0 3b 3f ac bc 18 e7 a7 3d fb c5 8b bd 0d 1f 8f bd
       -0.021026244 0.081983745 -0.06824871 -0.06988344
0003b0 78 1c 60 bc a6 42 6e bb 5f b3 54 3d e6 bb a2 bd
       -0.0136786625 -0.0036355644 0.051928874 -0.07945995
0003c0 9d f4 df 3d e4 f2 b5 3d 8b 75 60 bd 98 73 f2 3d
       0.10935328 0.08884218 -0.054799598 0.11838454
0003d0 3b 64 c7 3d a0 c2 60 3c dc fb 9b 3d a5 64 af bd
       0.09735914 0.013718277 0.07616398 -0.08564118
0003e0 1f d5 05 3e ba 35 91 3d 26 bb b4 3d 6c ee 4c 3d
       0.1306958 0.07090326 0.08824758 0.050032064
0003f0 69 e6 dc bb db 0d b7 3d f2 9f 7f bd 5e 62 7b bd
       -0.006741334 0.089381896 -0.062408395 -0.061373107
