gnn_phase2_best_scripted_state_dict.pt (torch, 40837 bytes, 9 tensors)

conv1.bias f4 [64]
00000000: 26dc a5bb 4814 ccbc 8865 113d 5bba d63c
00000010: f0bd 0d3d cd97 ec3c 832d 343d a0bd 553c
00000020: 6734 9d3b fc7a 4b3d 393b 203d b4f9 723c
00000030: 5436 a5bb 0355 a0bb c64a 483d b47d 0fbd
00000040: 90ee 09bd 086d 6f3d 5496 dc3c a8b9 abbb
00000050: 1a0f 753d 146c 463d 7f62 3a3d ef07 c43c
00000060: 4eaf fe3c 9075 2e3d e379 c3bc d61a 963c
00000070: e352 303d 5493 54bc cc8d 933b dd48 053d
00000080: 1649 543d 546a 1d3c a98c da3c ff81 18bb
00000090: 05f8 72bc c828 04bb 752d 423c 7c34 91bc
000000a0: 7474 c43c c7bc 813c 8ab6 30bb 8cd3 113d
000000b0: 58c8 1b3b 54a7 89bc 6c66 c4bb e2b5 863c
000000c0: d255 cdbc 397e 0cbe faec 8a3d 7231 5a3c
000000d0: 58db b93b b802 ae3c 013f dc3c 38b4 893c
000000e0: 01b9 793c 8f7a 253d 8286 d6bc d82f 113d
000000f0: 8c92 0a3d c402 c9bd c583 213d 9472 453d
-0.005061644 -0.024912015 0.03549722 0.026211908 0.034604967 0.028880978 0.043988716 0.013045698
0.0047975066 0.049677834 0.03911898 0.014830042 -0.005041877 -0.0048929467 0.048899435 -0.03503199
-0.033674777 0.05845359 0.02692715 -0.005240638 0.059828855 0.048442915 0.04550409 0.023929564
0.031089451 0.042592585 -0.023861831 0.018323343 0.043047797 -0.012974579 0.0045029875 0.03254019
0.051827513 0.00960787 0.0266784 -0.0023270843 -0.01482964 -0.002016591 0.011851658 -0.017725222
0.02398131 0.015837086 -0.002696427 0.035602137 0.0023770537 -0.016803421 -0.005993655 0.01644415
-0.025065336 -0.13720025 0.06783481 0.013317453 0.0056718998 0.02124153 0.026885511 0.016809568
0.015241862 0.040400084 -0.026187185 0.035446018 0.033831164 -0.098149806 0.039432306 0.048204973

conv1.lin.weight f4 [64, 25]
00000000: ae12 003e fff6 3b3d ecc9 ea3d bade 633e
00000010: 8d14 103e 2180 903e 4bb9 1cbe d946 8cbe
00000020: e274 953d 6527 82be efd0 86be fdd0 453d
00000030: a3ae 843e 0cba 89be 688a 55be bf11 683e
00000040: f131 50be b896 3a3e b08f ec3b 3c2f 373e
00000050: fbad 9cbe 92c1 debe 9cc2 3a3e 64bc d0be
00000060: c664 fabd cf89 033d 5aaf 6c3e 17c1 8fbe
00000070: e794 103e 435c 173e 39dc fe3c 1d07 163e
00000080: 9682 45bd dedb 2ebd f629 28be 2ce1 27bd
00000090: 62e9 163d 1499 b93e e33d a7be 553b 25be
000000a0: 4a3a 31be b35b 943d 1472 303e 1d5f aebe
000000b0: 9235 993d 26de 383d e229 9f3d 1aad 58be
000000c0: fba3 83be 8073 893d 44af 6bbd 061b bbbe
000000d0: 2689 ee3d d0ef 663e a8ec 8cbd cf8a c23d
000000e0: c4b4 abbe d596 6e3e 3a33 5d3e 96c8 5c3d
000000f0: 96cc 67be 3dff 6bbe 56f6 a53a 839e 2cbe
00000100: 44b0 963b 5688 4fbe 0533 98be 3469 653d
00000110: 9985 7c3d 7630 803e 421e 71bd 5f0c 9cbe
00000120: ae86 81be 579d 8dbd c650 1abe 846c 8dbc
00000130: 5801 c33c 098b 2dbe b6c7 25be a9f0 0dbd
00000140: 0fb7 ad3b edac 6dbd 9870 f63d c9f5 373e
00000150: 75d3 293e 7d95 60bc 22a6 fc3d 9441 5c3e
00000160: 0599 9bbd 7b98 763e 041a 6d3d a927 d6bc
00000170: e51f afbd 4f11 843d 6fc9 6f3d f4bd 58be
00000180: 080f d6be ce4c 9f3b a124 9c3c 6988 eebe
00000190: e8c2 7ebd 5ee3 f73e 1410 41bc 34c9 22be
000001a0: 053b dfbe 875d c43d 16f3 ec3e 22bc f63c
000001b0: 4e37 80be 58fa ec3c 85bb 11be 2e2c 913c
000001c0: 6413 afbe 333b e13d 70c1 a6be bee0 6dbe
000001d0: a9d5 de3e c49d 30bc 5aa0 983e f996 babd
000001e0: a248 273e 6a59 33bd 3908 ca3d acd5 a33e
000001f0: fa6e d53e f3b2 573e 211c 1fbf dd25 32be
00000200: 7ed1 f8bd 699c 093e 6000 813e 07a2 a8be
00000210: 12df 5a3d 0806 f9ba 33e5 a33d ffc6 e4bd
00000220: cbf2 f33b ee12 c3bd d89c 97be d6af 143e
00000230: 3d74 42be 78fb 33be 289d 42be 5eb8 223d
00000240: 311f 8b3e 315d f53d 1416 57be ba08 6b3e
00000250: e169 c1bd e2b3 c4be 1222 1bbe 3cbb 593d
00000260: 0393 a7bd 3b93 9bbd b8fa 663e 3cb3 bfbd
00000270: ed93 c73d e26d 87be f783 e1bd 6a92 e9bc
00000280: 4402 503d aca3 d1bd 597a b8bd a2c1 243e
00000290: b325 ebbd 7d02 2dbe cdfe 4bbc 8460 573e
000002a0: 4ce5 17bf 42fa 1e3d fb24 abbe a489 a4be
000002b0: b5c0 80be 933e 923e 9524 eebe 85a6 d8bd
000002c0: 1d12 1ebe 2406 8abe bfc6 7e3e ba1e c9be
000002d0: 852f 06be b22c 9c3d b19f b7bd 94fc 91be
000002e0: ef83 a5be 9415 5a3e 7cb2 42bc 116f bdbe
000002f0: 3e38 8b3d 54f9 7c3d 6fa4 893d eb79 e03e
00000300: d7a0 8f3e 5a04 733e e337 7f3d 4a9b 3dbd
00000310: ce81 133e 7ea2 ca3d 63dc 19bd 0faa 913e
00000320: 6043 a73e 9f84 90bb baee 603e 8db3 24be
00000330: 63b9 573e a0c7 28be 29cf 8f3e a594 c13c
00000340: 4167 94be a157 51be d62b aa3e 0581 793e
00000350: 1b6d c0bd 853a 5bbb 71d8 71be b429 bbbe
00000360: 1294 623e ad5f 48be 69e3 dc3e b80d 6f3b
00000370: ec89 783e 4e4f 203f ece6 173e 8c92 ccbc
00000380: de55 91bd 938b 3f3c 78ef 69be 5af5 58bb
00000390: a869 46be 1e78 db3d 912b 003e f7ac 5f3d
000003a0: 49cc 72bd e719 163e 5581 cbbd 9530 243e
000003b0: 9698 49bd 4cd1 d03d 30a7 c0be 6748 adbd
000003c0: eb29 d83c ef81 75be a701 81bd e964 3fbc
000003d0: b407 de3e 941a 8cbe 4a6b 37bf 0b2b 8abd
000003e0: 611e 123e b869 99be 629d 9cbb bd7c d1be
000003f0: 347f 5c3e c651 4cbd 6fc6 593c 66a3 3c3e
0.12507126 0.04588985 0.11464295 0.22252932 0.1407034 0.28222755 -0.15305059 -0.27397802
0.07297684 -0.2542068 -0.2633128 0.04829501 0.25914487 -0.26899755 -0.20853579 0.2266302
-0.20331551 0.18221557 0.0072192773 0.17889112 -0.30601487 -0.43507057 0.182383 -0.4076873
-0.12226252 0.032113846 0.23113766 -0.28077003 0.14119302 0.14781289 0.03111087 0.14651151
-0.04822024 -0.04269015 -0.16422257 -0.040986225 0.036843665 0.36249602 -0.32664403 -0.16135915
-0.17307392 0.07244053 0.17231017 -0.3405694 0.07480921 0.045133732 0.077716604 -0.21159783
-0.25711045 0.06711483 -0.057540193 -0.36544055 0.11647253 0.22552419 -0.06881076 0.09499132
-0.3353635 0.23299725 0.21601573 0.05390223 -0.22636637 -0.23046584 0.0012661915 -0.16857342
0.004598649 -0.20266852 -0.29726425 0.056008533 0.061650846 0.25036973 -0.058866747 -0.30478188
-0.25298065 -0.06914776 -0.15069875 -0.017263658 0.023804352 -0.16947569 -0.16189465 -0.03465334
0.0053013633 -0.058026243 0.12033194 0.17964853 0.1658457 -0.013707516 0.12336375 0.21509391
-0.075975455 0.24081604 0.05788614 -0.026141958 -0.08551005 0.06448614 0.05854171 -0.21166211
-0.41808343 0.0048614508 0.019060435 -0.46588448 -0.062197596 0.48415655 -0.0117836185 -0.15897065
-0.43599716 0.095881514 0.4627921 0.030119006 -0.25042194 0.028927967 -0.1423169 0.017721262
-0.3419448 0.109976195 -0.32569456 -0.23230264 0.43522385 -0.010779802 0.2980984 -0.09110827
0.16336301 -0.043786444 0.098648496 0.31998956 0.4168623 0.21064357 -0.62152296 -0.17397256
-0.121493325 0.13438572 0.251956 -0.32936117 0.053435393 -0.001899899 0.08002701 -0.11170768
0.0074447147 -0.09525095 -0.2961185 0.14520201 -0.18989654 -0.17576396 -0.19005263 0.039726608
0.27172235 0.119806655 -0.21004516 0.22952548 -0.09444023 -0.3841849 -0.15149716 0.053157076
-0.08182337 -0.07596441 0.22556579 -0.09360358 0.097450115 -0.2645102 -0.110114984 -0.028512198
0.05078341 -0.10236296 -0.09007711 0.1608949 -0.114818 -0.1689548 -0.012450886 0.21032912
-0.59334254 0.038812883 -0.3342665 -0.3213626 -0.25147024 0.28563365 -0.46512285 -0.10578636
-0.15436597 -0.2695781 0.24880503 -0.39281255 -0.13104065 0.076257125 -0.089660056 -0.28513014
-0.3232722 0.21297294 -0.011883374 -0.369988 0.06797837 0.061761215 0.06720816 0.43843016
0.280524 0.23732129 0.062309157 -0.046290673 0.14404985 0.09894274 -0.037563693 0.28450057
0.3266859 -0.004410341 0.21966067 -0.16084118 0.21066813 -0.16482401 0.28087738 0.02363045
-0.28985026 -0.20443584 0.3323657 0.24365623 -0.0939581 -0.0033451628 -0.23617722 -0.36555254
0.22126797 -0.19567747 0.4314225 0.0036476683 0.24271363 0.6262101 0.14834183 -0.024972223
-0.07096456 0.011690992 -0.22845256 -0.0033105225 -0.19376242 0.1071627 0.1251662 0.05460831
-0.059276853 0.14658318 -0.099367775 0.16034158 -0.049217783 0.1019617 -0.37627554 -0.08461075
0.026387176 -0.23975347 -0.06299143 -0.011681774 0.43365252 -0.27364028 -0.71648085 -0.06746491
0.14269401 -0.2996347 -0.0047795037 -0.4091548 0.21532899 -0.049882673 0.013291939 0.18421707

conv2.bias f4 [64]
00000000: ce87 0b3d deb8 3a3c ec09 283d 515a 16bd
00000010: bee5 2a3a 0bc2 6fbc 1eb2 b9bc 56a0 00bd
00000020: f907 483d ae01 5f3d 1327 d2bd 839b 103d
00000030: ac2c 943c e0b9 353d e422 833d b0a4 e43c
00000040: d259 033d 22bb 153d d17e a13c 6f36 433d
00000050: eda7 3b3d 282e 813c 3ee9 223d e5ba 9c3c
00000060: 58c5 a5bd 4cd0 1b3d 4666 0cbd b968 86bd
00000070: 2f81 2b3d 3576 14bc cc72 6b3d 441d 053d
00000080: a043 3d3d c2e2 84bc f938 54bc 4be7 ac3c
00000090: bf19 273d 0000 0000 a37a 23bc 30fb 84bc
000000a0: 9d02 093d 79a4 4c3c 909d 413d e03b 0dbc
000000b0: 886f 0a3d c283 143d 04d6 593c 0c31 bcbc
000000c0: 945b 2cbc 9807 573d 7685 4f3d e645 403d
000000d0: 932b 0c3d cbdd 6e3b d1af 713d 4c2b 173d
000000e0: 1167 f73c d6d9 cb3c 1fac 613d cd02 c8bc
000000f0: b495 e9bc efaf c6bc 8a2c 5d3d 267f 683d
0.03406506 0.011396615 0.041025087 -0.036707226 0.00065192196 -0.014633666 -0.02266794 -0.03140291
0.04883573 0.05444496 -0.10261359 0.035304558 0.018087707 0.044366717 0.06403139 0.02791056
0.03206808 0.036555417 0.019713791 0.047659334 0.045814443 0.01576908 0.03977322 0.019132087
-0.08094281 0.038040444 -0.034277223 -0.06562943 0.041871246 -0.009061386 0.057482526 0.032498613
0.04620707 -0.016221408 -0.012953036 0.021106383 0.040796038 0.0 -0.009977969 -0.016233057
0.033449758 0.012490385 0.047269404 -0.008620232 0.03379777 0.036258467 0.013295654 -0.022972606
-0.010519881 0.052497476 0.050664388 0.04694166 0.034221243 0.0036448117 0.059005562 0.036906525
0.030200513 0.024884146 0.055095788 -0.024415398 -0.028513767 -0.024253814 0.053997554 0.056761883

conv2.lin.weight f4 [64, 64]
00000000: 7408 893d aa45 8cbd 9ef1 ff3d 1498 eb3d
00000010: dc9a ee3c 8200 7a3e 6f5d 9fbd 964e 12bd
00000020: 669b 3dbe e89b 403e ffdc a73b 4ed4 d6bc
00000030: 2b8f bc3d 7eef f53d 546f 303e e5e7 ffbd
00000040: 7b32 90be a7ef b23d b2cb 1dbe d512 063e
00000050: 1155 a8bd 74cf 153e dd01 7e3d 29d5 813e
00000060: 3980 ad3d 7549 ecbc 52de b8bd 92ec 90bd
00000070: 566a 80be dc30 69be 0bb1 8dbd 29e9 31be
00000080: 86c6 26be 31b3 ffbd aa9a 8abe 75f3 41be
00000090: 3a90 20be eed6 fd3b 5b27 a8bd e282 a33c
000000a0: 452e 773e db9c 5ebe 6ef1 3ebe 53c8 4e3d
000000b0: ac89 c13d e1a0 20bd 6054 15be f2b6 21be
000000c0: 973b fd3d 3222 c3bc 0351 2b3e 9b11 bebe
000000d0: 4ece 0b3e 2d07 cb3d 252d 983d 2d03 46be
000000e0: 7963 013c cc07 5b3c 419d ee3d d141 333e
000000f0: 981e 7e3e c355 49be 2ccf 853e e912 7c3e
00000100: c418 d73d c5a4 d53d 2eae 72bd 53ca 0b3e
00000110: 4737 12bd 23db b13d 64d1 98bd 3c41 8abc
00000120: 613e 983e 93ee 093d 127e 6bbe cf65 edbd
00000130: 8fa1 babd 6491 a63d b018 9c3c 9f35 04be
00000140: 57df 903c d5e4 38bd 6e22 083e c2aa 033e
00000150: 3056 d8bc aea4 9b3b a0ab 1abe dacc 32be
00000160: 8cc0 f0bd b15c 6bbe 4eef f33d f64c 0e3d
00000170: 5293 fcbd d809 883e e2a5 5ebd 5148 4b3e
00000180: 47c3 7abe 1024 6e3e 109b 163e 9c81 85be
00000190: af2e 5d3e 010b 983b de97 9f3c 84e9 5bbe
000001a0: a698 193d a8bb 873d 3477 13bd 5363 3dbe
000001b0: 9dc1 57bd 933e 123e dd65 8b3d ba3a 6ebe
000001c0: 83fb c63d e0e5 fbbd c4cc df3d 2f43 c5bd
000001d0: a68f 1e3e 3402 11be 374e 2c3e a503 053e
000001e0: 061d 21be 9882 203e 6140 2f3d 9b62 18be
000001f0: 2a90 89bd 8c9d 743e 018f 1bbd 1e9b d83d
00000200: 54cc 40bc 6aea 0ebe 7b46 72bc 38cb 3dbe
00000210: 66bf a5be c7e4 2dbd b66a 5f3e a12b 293d
00000220: 7260 8dbd fe02 643e d2c9 983e 4d8d 4bbd
00000230: 41ae 8c3e b932 f13d bd76 b83d a33b a1bd
00000240: 3b96 d8bd 012c d73d 0e2f a9be 32fe 453d
00000250: 558c 633d 4447 f93d 22bf 883e b1c3 073e
00000260: e275 22be 9f2c 693e 03c9 8cbd a2d7 263e
00000270: 7fb4 193d d70f ddbd 6862 953d 4376 b4bd
00000280: 4005 65bd 878d c1bd 043c 2fbe f02a d33d
00000290: ca31 08be 9ea2 d93d 0349 1dbe 6aea 03be
000002a0: 3cf5 b13c c5ea 36be b072 7a3d 6807 4c3e
000002b0: 45c8 9abd e97e ccbd 9d75 5cbd 670b 4c3e
000002c0: dd5d 68bd 418c 083e 2450 b3bd f484 fcbe
000002d0: 0c68 d63d ef38 00be 50bc 163e 9054 1bbe
000002e0: 2de0 0e3d fcfb 87bd 4aa2 c93d e2dd 673e
000002f0: aff0 16be 8037 76be 915b 933d f349 633e
00000300: 5a26 a83d c786 76be 2bae c03d 6e27 423e
00000310: b9df cd3d 5fff f8bd 3a40 5fbd 6c84 67be
00000320: b5ee 023d 0cad f6bd 0263 d7bd 7f15 d2bd
00000330: f54b f43d af4e 1ebe 716b 0bbc 9800 bebd
00000340: 3e9c 963d a223 fe3d e153 5cbe beef 753d
00000350: db07 063e 2b31 173d d0d7 993d 70ca cfbd
00000360: 7efd 43be d0ae 7ebd 3e7c 28bd 8c9d 86be
00000370: d359 d73d 7c36 4bbe 2f38 013d b542 a1bd
00000380: 1cd8 cb3d 3424 363e e5cf f73d 938c 193e
00000390: 12db 363b a4d1 1a3e fa20 cc3d 8dd4 233e
000003a0: 94c5 c93d 1712 b7bb 13df 70be 57b9 1bbe
000003b0: 6554 273e daeb 84be 9749 65bd 79bb dcbd
000003c0: a455 e8bd 9c14 fe3d 2ca6 50be a454 233d
000003d0: 641c 013e e8a6 323d bce5 a23b 10df bfbd
000003e0: eca9 a03c e6b8 dbbd a590 80be 37fe 15be
000003f0: 61df 0bbe 3d9e c43c 9881 823c 27d2 05bd
0.066910654 -0.06849225 0.12497257 0.11503616 0.029126577 0.24414256 -0.07781493 -0.035719477
-0.18516311 0.18809474 0.0051227803 -0.026224282 0.092069946 0.1200857 0.17229968 -0.12495402
-0.28163514 0.08737116 -0.15409735 0.13093121 -0.0821935 0.14629918 0.062013496 0.2535794
0.08471722 -0.02884362 -0.09026779 -0.07076372 -0.25081128 -0.22772545 -0.06918534 -0.173741
-0.16286668 -0.1248535 -0.27071124 -0.18940528 -0.15680018 0.007746569 -0.082106315 0.01995987
0.24138744 -0.21739523 -0.18646786 0.050484013 0.09450087 -0.039215926 -0.14582968 -0.15792444
0.123648815 -0.023820017 0.16730122 -0.37122807 0.13652918 0.09913478 0.07430486 -0.19337149
0.007897251 0.013368558 0.116510876 0.17505576 0.24816358 -0.19661622 0.26134622 0.24616589
0.105027705 0.10431818 -0.059248142 0.136514 -0.035697248 0.08684375 -0.07461813 -0.01687681
0.2973509 0.033674788 -0.22997311 -0.11591684 -0.09112846 0.081332 0.01905474 -0.1291108
0.017684622 -0.045140106 0.13294384 0.12858108 -0.026408285 0.004749856 -0.15104532 -0.17460957
-0.117554754 -0.22984578 0.11910878 0.034741364 -0.123327866 0.2657001 -0.054357417 0.19851805
-0.24488555 0.23255944 0.14707589 -0.26075447 0.2159984 0.0046399836 0.019481596 -0.21475798
0.037499093 0.066275895 -0.036002353 -0.1849492 -0.05267488 0.14281683 0.06806538 -0.2326459
0.09715941 -0.122997046 0.10927728 -0.09631955 0.15484485 -0.14160997 0.16826712 0.12989672
-0.15733728 0.15674818 0.042786006 -0.14881365 -0.0671695 0.23888224 -0.037978176 0.10576461
-0.011767466 -0.1395661 -0.014787312 -0.18534553 -0.32372588 -0.042454507 0.2181805 0.041301373
-0.06903161 0.22266766 0.29841477 -0.0496953 0.27476695 0.11777253 0.090070225 -0.07872703
-0.10575529 0.1050644 -0.33043712 0.048338123 0.055553753 0.12171796 0.26708323 0.13258244
-0.15865281 0.22770928 -0.068742774 0.16293195 0.03752565 -0.10794037 0.0729416 -0.08811619
-0.05591321 -0.09450822 -0.17112738 0.10310924 -0.13300243 0.1062672 -0.15359883 -0.1288239
0.021723382 -0.17862995 0.06114453 0.199247 -0.0755773 -0.09985144 -0.053823102 0.19926225
-0.05673014 0.13334753 -0.0875552 -0.49320185 0.10469064 -0.12521718 0.14720273 -0.15168977
0.03488176 -0.06639859 0.09845407 0.22643235 -0.14740251 -0.24044609 0.07195199 0.22196178
0.0821044 -0.24074851 0.0940822 0.18960354 0.10052437 -0.12158083 -0.05450461 -0.22609109
0.03196593 -0.12044725 -0.10516931 -0.10258006 0.1192855 -0.15459703 -0.008509503 -0.09277457
0.073540196 0.1240914 -0.21516372 0.06004309 0.13088934 0.036912125 0.07511866 -0.10146034
-0.19139668 -0.062178433 -0.04113411 -0.26292074 0.105151795 -0.19845003 0.03154772 -0.078740515
0.09953329 0.17787248 0.121001996 0.14995031 0.0027901572 0.15119034 0.09967227 0.1599905
0.09852138 -0.0055868733 -0.23522596 -0.1520742 0.16340788 -0.2596119 -0.055978384 -0.10777945
-0.1134446 0.12406275 -0.2037589 0.03987564 0.12608486 0.043616205 0.004971234 -0.09368718
0.019612275 -0.10728626 -0.25110355 -0.14647757 -0.13659431 0.024001235 0.015930936 -0.03267112

conv3.bias f4 [32]
00000000: 5675 bd3b a86e 54bd 7e7b c13c e69a 863d
00000010: 7faf 0ebc ecf0 883d ac99 5c3d 38ea 103d
00000020: dedc 3a3d 66e0 c0bc 2ecf 373d a056 653c
00000030: 9fc9 45bd daf3 4cbd 5fba f83c b98b 0e3d
00000040: 1ea2 663c 2b04 373d be06 4abc 3c83 8fbc
00000050: 9232 3b3d 8359 a5bc bbcb d73c 86a8 c5bc
00000060: f45e c33c 6e40 a9bc c121 8a3c 8258 603d
00000070: 6a86 c13c 16be 653d 25ca 663d c0c1 a53d
0.00578181 -0.051863343 0.023618456 0.06572513 -0.008708834 0.06686577 0.05385749 0.03537962
0.04562079 -0.023544502 0.044875316 0.013997704 -0.048287984 -0.050037242 0.030362306 0.03480122
0.014076738 0.04468171 -0.012330709 -0.017518632 0.045702524 -0.020184284 0.026342263 -0.02412821
0.023848988 -0.020660605 0.016861798 0.054771908 0.023623664 0.056089483 0.056345124 0.080935955

conv3.lin.weight f4 [32, 64]
00000000: e761 05be a0ad 2f3e 3e2b ffbd 185b bb3d
00000010: b79e 3b3e 708f 7c3d 9866 50be 2871 68be
00000020: acde 96be c3c2 8d3c b0f0 15be 5464 4abe
00000030: 12a8 303e edcf a1bd 8298 9b3e b1ac bfbd
00000040: d80a 303e 96de 053e f4f0 57be bdc9 f73d
00000050: 45af cf3e cc77 21be afd6 a4bd 40a8 353d
00000060: 8b9a 31bd 5fc8 babd 4a62 6ebe d7d9 24bd
00000070: 0a52 f9bd 37a6 023d 256a 123e 082e eb3d
00000080: a244 853d c163 2d3e 51bc 953d 98c9 97bd
00000090: afc2 8d3d 1042 5d3d f4c2 c63d 3370 993e
000000a0: 8c72 25be 212d d63b f1f1 55bd daee 51be
000000b0: b658 60be b0fd aa3e 3522 493e f307 fabd
000000c0: 0608 fc3d ca81 92bd b4a6 88bd 2bd8 50be
000000d0: 7e4e 65bd e0d8 773e 1758 9b3d 1001 01be
000000e0: b260 b63c 638e 3b3d 4d1d ccbd be7d 2cbd
000000f0: d516 0abe 7dea 49bd be56 693e 7758 19be
00000100: 85d3 2abe 7fa2 0ebe 0c0e 80bd ce8c 453e
00000110: 4e91 4e3e b653 49be 87ae c33c 4737 2c3e
00000120: 360b 46be 4342 fdbc be73 7ebe 9d9d 153e
00000130: d664 2fbe ca54 843d fefd 3a3e c505 66be
00000140: 9ca3 1fbe 878c acbc d71f 49be 395c 41bd
00000150: 1ed3 c43d 0e15 883d bed7 a8bd 059d 2bbd
00000160: 27a6 183c 3369 7f3d c844 73be e73b a23c
00000170: 70c4 81be 2589 9b3d d23c 99bd e15c d3bd
00000180: 6ae3 173e 9dd1 673e e369 f33d 859e 15bd
00000190: aa46 8c3d bc88 bd3d d1b6 efbd 1118 d63c
000001a0: 73f4 db3a ca0c 9dbd 96fb 9a3d dd10 91be
000001b0: 9ade 4d3e 11f5 10be 22a3 ffbd 96fe 3f3e
000001c0: f4e0 da3d 7259 60be b12e 35be 2b80 16be
000001d0: 0785 32be 06d3 93bd 267c 573b d984 41be
000001e0: eda2 4bbe f624 5bbe 12d8 f9bd 1b7a 70be
000001f0: e538 3c3e 8197 07be 77fe bf3c 52a2 17be
00000200: 96a3 1d3e ecb3 913e 29f1 7e3e 2beb 5a3d
00000210: b357 80be b4ad 8cbc a6e1 4dbd d008 22be
00000220: a2e4 073e b394 8dbe 71b0 b23e 9905 bf3d
00000230: 4ce5 633d 557e cbbd 5d81 aa3e 574e c2bd
00000240: efaf c83e f64c 963e 930c 243e 1a78 20be
00000250: 7f9a e63e 549c 153c ce8b efbd 61db 153e
00000260: db32 653d 943c 553e d62e 10be 089e a8be
00000270: 2078 e33c 18c7 d93d 46c7 283e 1acc d93d
00000280: b210 333e eacf f63d 503a a9bd b8fb 5f3e
00000290: c3c0 b03d 6e2a 153e 3f89 a83d 4fa8 333e
000002a0: 5c13 7dbe 0f6e c4be 35c4 59be 4366 cebe
000002b0: 1857 2d3d cadc f13e 4458 283e 0cff 49be
000002c0: 79f9 53be cc7c d83e ee84 c93e 95d9 d23d
000002d0: 725a 30be 3f96 cb3e 7b97 593c f135 573e
000002e0: 15ac 723e dccc 573e 52ec e13c 0aee 34be
000002f0: 2945 833d 103f 02be 30ce a9bd a435 07be
00000300: d746 483d 9c51 b2bd f124 5c3e 1a92 67bc
00000310: ab69 603d 1e7e 003e b3d4 b03d a42b b5bc
00000320: 8fd2 ba3d 32da a03e 2c1f 36be d8b6 2f3e
00000330: 36d8 efbb 3a61 683e 24cc 9dbe 364d 6dbd
00000340: bae9 3ebe 0e39 98be b652 ebbd 4317 083e
00000350: 2fab 6ebe 780a 13be 7d79 0c3e be24 813e
00000360: 70f6 a0be 0fe4 8b3e 2dd8 62be 4f45 0abe
00000370: 167b 893e f5fe 2dbc 3a10 583e a868 c6be
00000380: dfc9 703e 30e0 25be 1ba9 babd 2c2f b2be
00000390: b10a 533d babd 113e e085 4c3e 829b a4be
000003a0: 9469 a8bd c154 993e 23bb 703e b730 a93d
000003b0: fe98 fa3d e425 7fbe aa9e 613e 6bd9 14be
000003c0: 493e f13d ab6f 42be e7c7 2fbe 3fa3 c33d
000003d0: 98ee 023e 4f93 87be 99fb 933e cc01 413d
000003e0: 5bdd 443e 54f2 76be c91a 283e 5554 efbd
000003f0: 76dc dabc c028 4fbe 7fe8 16bd 7738 a23e
-0.13025628 0.17156076 -0.1245942 0.09148234 0.18322264 0.06166023 -0.20351636 -0.22699416
-0.2946676 0.017304784 -0.14642596 -0.19764835 0.17251614 -0.07900987 0.30389792 -0.0935911
0.17191637 0.13073191 -0.2108801 0.120990254 0.40563408 -0.15768355 -0.0804876 0.04434991
-0.043360274 -0.09120249 -0.23279682 -0.04024681 -0.12173851 0.031896796 0.14298303 0.11483389
0.06507231 0.16932584 0.07311309 -0.07411498 0.069218986 0.05401808 0.09705153 0.29968414
-0.16156977 0.0065361415 -0.052232686 -0.20501271 -0.2190884 0.33396673 0.19641955 -0.122085474
0.12306218 -0.071536615 -0.06672421 -0.20394962 -0.05598306 0.24203825 0.07585161 -0.12598062
0.022262905 0.045790087 -0.09966526 -0.042112105 -0.13485272 -0.04929589 0.22786996 -0.14975153
-0.16682251 -0.13929175 -0.06252679 0.19291994 0.20172617 -0.1966084 0.023886932 0.16817962
-0.19340214 -0.030915385 -0.2484884 0.14610906 -0.1712831 0.06461485 0.18260953 -0.22463138
-0.15589756 -0.021063102 -0.19641052 -0.04720709 0.0961058 0.06644641 -0.082442746 -0.041897792
0.009316958 0.062356185 -0.23756707 0.019803954 -0.25345182 0.075945176 -0.07482304 -0.103204496
0.14832845 0.22638555 0.11885431 -0.03652813 0.068494156 0.09254596 -0.11704791 0.026134523
0.0016781226 -0.07668455 0.075675175 -0.28333178 0.20104447 -0.14155985 -0.12482287 0.1874946
0.10687438 -0.2190912 -0.17693593 -0.1469733 -0.17433558 -0.07217984 0.0032880395 -0.18898334
-0.1988637 -0.21400818 -0.12199415 -0.2348408 0.18381079 -0.13241388 0.023436768 -0.14808014
0.15394434 0.28457582 0.24896683 0.05344693 -0.2506691 -0.017172672 -0.050264023 -0.15823674
0.1327081 -0.2765251 0.3490024 0.093272395 0.055638596 -0.09936205 0.3330182 -0.094875984
0.39196727 0.29355592 0.16020422 -0.15670815 0.45039746 0.00913151 -0.116965875 0.14634468
0.055956703 0.2082389 -0.14080366 -0.32933068 0.027767241 0.10633677 0.16482267 0.106346324
0.17486838 0.12051375 -0.08263075 0.21873367 0.086305164 0.14566967 0.082293026 0.17544673
-0.24714416 -0.38365218 -0.21266253 -0.40312394 0.042319387 0.4723876 0.1643992 -0.19726199
-0.20700635 0.42282712 0.3935923 0.10295407 -0.17222002 0.39763066 0.013280745 0.21016671
0.23698457 0.21074241 0.027578507 -0.1766893 0.06409676 -0.12719369 -0.0829128 -0.13204056
0.048895683 -0.08706972 0.21498467 -0.014133954 0.054788273 0.1254811 0.08634319 -0.022115536
0.09122192 0.3141647 -0.17785329 0.17159593 -0.0073194755 0.22693339 -0.3081981 -0.057934962
-0.18643847 -0.2973103 -0.11490385 0.13290124 -0.23307489 -0.14359462 0.13718219 0.25223345
-0.31438017 0.27322432 -0.22152777 -0.13503002 0.2685172 -0.0106198685 0.2109994 -0.3875172
0.23514508 -0.16198802 -0.091142856 -0.34801614 0.051523868 0.14232531 0.19972944 -0.32149893
-0.082232624 0.29947475 0.23508887 0.08261245 0.12236212 -0.24916798 0.22033182 -0.14536063
0.11779458 -0.1898791 -0.171661 0.09552621 0.12786329 -0.26479575 0.2890289 0.047120854
0.19225065 -0.24115878 0.16416468 -0.11686007 -0.026716452 -0.20230389 -0.03684282 0.31683704

head.0.weight f4 [32, 32]
00000000: f60e 80bc a51c 36bd a259 7abd 9988 5b3d
00000010: 7855 2c3d f4f2 1f3d 1112 333c dc2a 113d
00000020: e8b6 153e 4f39 f9bc ed74 0d3e 62ba b8bd
00000030: c46a 063c 7e25 703d b65f 87bd 7ba1 8d3c
00000040: 4851 43be 9a92 c0bd 10b7 d5bd 133b 9d3c
00000050: cfbc 15be 138c 6a3c 78a9 87bd 60bf c33d
00000060: df4f 77bc 1b1f a3bd a3ca 173e 699f 10be
00000070: 2f57 62bd 6303 aabd 0c77 3d3d 3ef6 ecbc
00000080: fd1f b93d a233 323e 8553 0abe f9c9 aebc
00000090: 6ffb e3bd e1b1 c03d 439d eabd 7967 31be
000000a0: c99b a2bd ba13 9fbd 8851 863c 2dba 293d
000000b0: f78d 173d e742 d03c 53e9 25be e41a 2c3e
000000c0: f9db 38bd 532f 9bbc 94db c43d 7204 5a3d
000000d0: 8310 cd3c dc56 e43d bd4b 80bd 7c5a 963d
000000e0: 49fc 2abe 620f 073e 1d9a f73d 4c64 1fbe
000000f0: 63f1 87bd da9d ddbc 5c0a 103e e965 173e
00000100: b5aa 62be b2df 09be f494 93be 0bc8 823e
00000110: 1c98 c43d 0cb1 533e 7b88 7bbd 743d 27bd
00000120: c3f5 afbd 2d1d c13b b340 8c3d 03f2 3ebc
00000130: db54 d93c f7cd 88bd 228e 79be 14f9 c73d
00000140: 64ce 233e 572d e93c 39b8 1bbe 5c66 18be
00000150: 7c70 af3d 1a79 b6bd e0f7 a93d c93f 1b3e
00000160: d4e1 323e 6e54 63bd a262 593e 3bbd e3bc
00000170: 6ea0 3ebd fab1 373e 52dd 62be 82be 6c3e
00000180: ca06 243e 19b5 d7bb 0f16 2ebe d01a 953c
00000190: 4931 f8bd 4848 69bd 515e eb3c d0ba efbd
000001a0: 8e36 18bd 6714 093e e363 fdbd c732 1b3e
000001b0: c6f0 b8bd 9a84 05bb b20f 5b3c 78a2 37be
000001c0: 07c9 8fbb 3780 5ebd 8cea a13d b29d 7bbc
000001d0: 9bb8 0c3e 9972 22be d6e5 b53c d804 083e
000001e0: 9d38 36be f10d 8bbc d4c0 1e3e b070 03be
000001f0: 0b7b c33d 11b3 c73d b665 d4bd e2ec f5bd
00000200: 14d8 bfbd f183 adbd 4751 75be 08fd f63d
00000210: 261f b43b 029d 293e c521 8c3e 6eae dc3d
00000220: 96bb 6f3e aad4 393e 5315 02bd 071d 98bc
00000230: b2fa 843d a3ed 503d edf7 0ebe d841 30bd
00000240: 32e6 d8bd 3b2f 6f3d 555a 8dbd 82cb 3f3d
00000250: 0311 393e 9583 b63d 1c0f 043e a16a 813c
00000260: 5682 c1bd 43bb 7bbd f774 b53d 1e3f 9b3d
00000270: a837 9dbd dafe 803e 89b7 1ebe fd30 a7bc
00000280: 9dfb 02be 35f1 ebbd 4498 b43d 4f65 96bd
00000290: ca58 243e c03e d53d 3fe1 a53d 00de 213d
000002a0: 5949 76bd 381e 02bc 2a88 ed3d f986 c2bd
000002b0: 0725 2d3e bd7f 2bbd 7107 14bd 6926 023e
000002c0: bc59 f5bd f42a f53d e0ad 9abc e55d bc3d
000002d0: fa14 393d d547 43be d52f c1bb fb78 373b
000002e0: e5d3 15be 7f72 6b3d 934a 15be b4c1 03be
000002f0: 8371 9ebd 30c8 15be d9f1 57bd 950a e93d
00000300: 4833 38bd e073 1a3d 57f5 7dbd 49c3 d0bd
00000310: 8547 bbbd a629 71bc f624 2fbe 6885 96bd
00000320: 0166 d6bc 5524 233e b7ce 943d 0012 bdbd
00000330: 68fc 023d 9f13 c23d c35b 5c3d f552 aebd
00000340: e653 3cbd 9633 28be 6a70 323e 3762 e7bd
00000350: df77 343e 6d22 5b3d 15d6 f33c c43c 01be
00000360: 79ba 34bc aae2 e33d c2bd 72bd 157b 913c
00000370: eeb0 ec3b 34d9 76bd 5075 223d 3530 7abc
00000380: f5c7 3abd d57d e43c a319 b03c 1f37 753d
00000390: 4554 f73d 8211 9e3b 6dd8 f0bc 7fdd 7dbc
000003a0: 1b58 e3bd d701 de3d 0578 acbd ca26 0abe
000003b0: 9f7b cabd a7c4 36be c94b 9f3d d2ed 973d
000003c0: b7d9 22be acdf 8ebd 2873 fb3d 62bd 30be
000003d0: 620a 173e 981a 39be 27d7 2a3e d62a 823c
000003e0: 1b5b a3bd 7827 993d d6c1 af3c d809 4a3d
000003f0: c195 a23d 217a 44bd b104 aebd b177 00be
-0.015632134 -0.04446091 -0.061120637 0.053597067 0.042073697 0.039050058 0.0109296 0.035441265
0.14620554 -0.030422835 0.13814135 -0.09019925 0.008204166 0.058629505 -0.06610052 0.017288914
-0.19073975 -0.09402962 -0.10435307 0.019193208 -0.14622806 0.014315623 -0.066241205 0.09557986
-0.015094726 -0.07964917 0.14823394 -0.1412331 -0.055258926 -0.08301427 0.04625611 -0.028926011
0.090393044 0.17402509 -0.13508423 -0.021336542 -0.111319415 0.09408928 -0.114557765 -0.17324628
-0.0793987 -0.077674344 0.016396299 0.041437317 0.037000623 0.025422527 -0.16202287 0.16807133
-0.045131657 -0.018943464 0.09612194 0.053226896 0.025032287 0.111493796 -0.06264446 0.07341477
-0.16697802 0.13189462 0.12089942 -0.15565604 -0.06637838 -0.027052809 0.14066452 0.1478497
-0.22135432 -0.13464239 -0.2882458 0.25543246 0.09599325 0.20673007 -0.061409455 -0.04083009
-0.08591797 0.0058933706 0.06848278 -0.01165438 0.02652972 -0.0667991 -0.24370626 0.09764305
0.159967 0.028464003 -0.15206994 -0.14882797 0.085663766 -0.08909817 0.082992315 0.15161051
0.17468959 -0.05550044 0.21229032 -0.027800193 -0.046539716 0.17938986 -0.2215474 0.23119548
0.16018215 -0.006582868 -0.17000602 0.018201262 -0.121187754 -0.0569537 0.028731497 -0.117055535
-0.037161402 0.13386689 -0.123725675 0.15156089 -0.09030299 -0.0020373226 0.013370441 -0.1793307
-0.004387978 -0.054321494 0.079060644 -0.015357422 0.13742296 -0.15864028 0.02220432 0.13283098
-0.17795034 -0.016974421 0.15503246 -0.12835956 0.09544953 0.09750951 -0.10370962 -0.120080724
-0.093673855 -0.084724315 -0.23956786 0.12059981 0.0054968772 0.165638 0.27369514 0.10775457
0.23411402 0.18147531 -0.031758618 -0.018568529 0.06493129 0.051007878 -0.13961764 -0.043031543
-0.10590781 0.05839465 -0.06901995 0.04682494 0.18072896 0.08911816 0.12896389 0.015797915
-0.09448688 -0.061457884 0.088602 0.07580398 -0.07676631 0.25194436 -0.154997 -0.020409102
-0.12791295 -0.11520616 0.08818105 -0.07343542 0.16049495 0.10412359 0.08099603 0.039518356
-0.060128544 -0.007941775 0.11598237 -0.094984 0.16908656 -0.041869868 -0.03613991 0.12709965
-0.11980006 0.11971083 -0.018881738 0.091975965 0.04518602 -0.1907037 -0.0058955946 0.0027995694
-0.14631613 0.05748224 -0.14579229 -0.1286686 -0.077364944 -0.14627147 -0.05272088 0.113789715
-0.04497078 0.037708163 -0.062001552 -0.10193498 -0.09144501 -0.014719402 -0.17103943 -0.07349664
-0.026171686 0.15931828 0.0726599 -0.09231949 0.031978995 0.09476399 0.05379845 -0.085119165
-0.04597845 -0.16425928 0.17425695 -0.1129803 0.17623852 0.053499628 0.029765168 -0.12620836
-0.011030787 0.11127217 -0.059263 0.017758885 0.00722324 -0.060265735 0.03966266 -0.0152702825
-0.04560085 0.027892033 0.0214966 0.05986702 0.1207662 0.0048238644 -0.029400075 -0.015494703
-0.11100789 0.10840195 -0.084213294 -0.1349136 -0.0988686 -0.17848454 0.07778127 0.074184075
-0.15903364 -0.06976256 0.12277824 -0.17259744 0.14750054 -0.18076551 0.16683637 0.015889566
-0.07976361 0.07478231 0.021454733 0.049325794 0.079387195 -0.047968034 -0.084969886 -0.12545659

head.0.bias f4 [32]
00000000: 484d 18be 6ef2 91bd af1c be3d 24e2 9e3c
00000010: 1532 403d 687f e7bb 5265 25be 1cab 5dbd
00000020: 7c1c 843d d026 883c 574a 6cbc 03e0 b7bc
00000030: 1513 2bbe 7af0 a3bd c85f a0bd acc8 5ebd
00000040: 7714 40be ad84 3cbd 73f9 c33d cf1e 06be
00000050: 414b e1bd c1ad 8ebd 017a f2bd 5ce7 0d3d
00000060: 97f2 1b3e 5d2b 703d 3f0b fc3c abf8 ce3c
00000070: 5c6b 223c 3c5a 1dbd 183e cebd cd0b 0b3e
-0.1487323 -0.07126318 0.09282815 0.019394942 0.046922762 -0.0070647486 -0.16151932 -0.05411826
0.064507455 0.01662007 -0.014422021 -0.022445684 -0.16706498 -0.08004852 -0.07830769 -0.054390594
-0.18757807 -0.046024967 0.09569063 -0.1309769 -0.11000682 -0.06966735 -0.11839677 0.03464447
0.1522926 0.058635104 0.030767081 0.025265059 0.009913292 -0.038416132 -0.10070437 0.1357872

head.3.weight f4 [1, 32]
00000000: b2d9 0abe 2e65 d1bd e85a 683e 44c3 c5bd
00000010: 3705 4a3e 3e9c 9cbc dc19 cbbd 3edd a2bd
00000020: d529 013c 656a babd 1946 633e 7931 423e
00000030: 7f42 b83d 3931 5cbd bdfb 6e3e c428 42bb
00000040: 6880 fa3d a25c f2bd e55a 253e 1607 01be
00000050: b07c 233e 7442 49bd 4b96 f4bd cb4e 1c3e
00000060: 4da3 683e be17 43bd aabe 913c cf56 17be
00000070: fcaf f6bd 84cc e8bc f132 d9bd 6ab2 cb3b
-0.13559607 -0.102243766 0.22690928 -0.096563846 0.19728552 -0.01911747 -0.09917042 -0.07952355
0.007883509 -0.091023244 0.22194709 0.18964185 0.08997058 -0.05375788 0.23338218 -0.002962635
0.12231523 -0.118340746 0.16147955 -0.1260036 0.15965533 -0.04913564 -0.119427286 0.15264432
0.22718544 -0.047630064 0.017791111 -0.14779209 -0.12045285 -0.028417833 -0.106054194 0.006216337
